ml-service/app/ml-models/digit_conv3.pt (torch, 203127 bytes, 6 tensors)

conv_stack.1.weight f4 [32, 1, 3, 3]
0	0xbd8bb74c	-0.068220705
1	0x3e59b2c5	0.21259601
2	0x3ddfbb65	0.109244145
3	0x3ea95121	0.3306971
4	0xbd75ac9e	-0.059979074
5	0xbdae570b	-0.08512696
6	0x3d814ffb	0.06314083
7	0xbeb20caf	-0.34775302
8	0x3eb40653	0.35161075
9	0xbe7fb331	-0.249707
10	0x3da6d2cd	0.08145676
11	0x3f19a3cc	0.6001556
12	0xbf0c535f	-0.54814714
13	0xbea348bb	-0.31891426
14	0x3ede975a	0.43474847
15	0xbefa3128	-0.48865628
16	0x3e8f0166	0.27930754
17	0x3f0e97b1	0.5570021
18	0x3ea7d9f1	0.32783464
19	0xbeabe656	-0.3357417
20	0xbe0aa5ba	-0.13539782
21	0xbdae8b9c	-0.08522722
22	0x3dbda427	0.09259825
23	0xbe67e75f	-0.22646855
24	0xbecf900a	-0.4053958
25	0xbe33bfe1	-0.17553665
26	0xbde4d8f1	-0.11174191
27	0x3e0f63e7	0.14002953
28	0xbd8c02b2	-0.068364516
29	0xbdab7aed	-0.083730556
30	0x3e424eb2	0.18975332
31	0xbecfee24	-0.40611374
32	0xbe819cf4	-0.25315058
33	0x3ed1ee99	0.41002348
34	0x3e822549	0.2541907
35	0x3ecd233e	0.4006595
36	0x3ebc3f3c	0.36766994
37	0xbb98f1c4	-0.0046674926
38	0x3d825015	0.06362931
39	0xbe23ad0e	-0.15983984
40	0x3e5c8d70	0.21538329
41	0x3e253ecb	0.16137235
42	0xbe5b3c0f	-0.2140963
43	0x3e85f336	0.26162118
44	0x3d55d6ab	0.052206676
45	0x3f06b8fc	0.52626014
46	0x3d576072	0.05258221
47	0xbebecad2	-0.37264115
48	0xbe3d7b1b	-0.18503992
49	0xbe8254db	-0.25455365
50	0xbe9ae78b	-0.30254778
51	0xbea7cc59	-0.32773092
52	0xbe28beea	-0.16479078
53	0x3d55424c	0.05206518
54	0x3f0ae9ac	0.54262805
55	0x3e1745a5	0.14772661
56	0x3e99a6a9	0.30009964
57	0xbe9bd941	-0.3043919
58	0xbdcac930	-0.09901655
59	0x3ed5d8b0	0.41766882
60	0xbe9a954a	-0.30192024
61	0xbd50624b	-0.05087499
62	0x3e660745	0.2246371
63	0xbb67e1ec	-0.0035382463
64	0x3e80a8f8	0.25128913
65	0xbe816b8a	-0.25277358
66	0xbe9c003a	-0.30468923
67	0xbebf770a	-0.37395507
68	0xbe7ca44b	-0.24672048
69	0xbe60f440	-0.21968174
70	0x3ed38664	0.4131347
71	0x3de10dcf	0.10988962
72	0x3e856f17	0.26061317
73	0x3ea2a7d7	0.31768677
74	0xbec43c5a	-0.38327295
75	0x3c131437	0.008976988
76	0x3dcc5cc0	0.09978628
77	0x3ddd1dc0	0.1079669
78	0xbe518b8f	-0.20463394
79	0x3e2cf085	0.16888626
80	0x3e9d6111	0.30738118
81	0x3e8efe1d	0.27928248
82	0xbe74b88d	-0.23898526
83	0x3eadecc3	0.33969697
84	0x3e90c107	0.28272268
85	0x3e1d065e	0.1533446
86	0xbea658aa	-0.3248952
87	0xbe58edaf	-0.21184419
88	0x3e6e86b4	0.23293573
89	0xbc0704d5	-0.008240898
90	0x3f1b0773	0.6055824
91	0x3e2730af	0.16327165
92	0xbf231e30	-0.6371794
93	0x3f0bda11	0.5462962
94	0xbeb4ca2e	-0.353105
95	0xbf08fdd7	-0.5351233
96	0x3efb0844	0.49029744
97	0x3ea1690e	0.31525463
98	0xbd938e64	-0.07204893
99	0xbe6753f5	-0.22590621
100	0x3dd7da2f	0.10539662
101	0x3e92d083	0.28674707
102	0x3b5a5a18	0.003331786
103	0x3ea811bb	0.32826027
104	0xbe354214	-0.17700988
105	0x3cfd42c1	0.03091562
106	0x3e9dcfb2	0.3082252
107	0xbe599abd	-0.21250434
108	0xbed84b74	-0.42245066
109	0xbe336d17	-0.17522083
110	0xbe98b752	-0.29827362
111	0xbe9094d5	-0.2823855
112	0xbdeb7f50	-0.11498892
113	0x3ef2957d	0.47379676
114	0xbd852446	-0.06501059
115	0x3ee06e9b	0.43834385
116	0x3e45ae2f	0.19304727
117	0xbec5d61a	-0.3863991
118	0xbe1e47a5	-0.15457018
119	0x3d6405fa	0.055669762
120	0xbd15452b	-0.036442917
121	0xbea1166b	-0.31462416
122	0x3ebd0032	0.36914212
123	0x3f007bc9	0.5018888
124	0x3ea1c2f4	0.3159405
125	0x3eba19d4	0.3634783
126	0x3e63202e	0.22180244
127	0x3e69a8c3	0.22818284
128	0xbe07865f	-0.13234852
129	0x3e0879e0	0.13327742
130	0x3e42de38	0.19030082
131	0xbeb597f5	-0.35467497
132	0xbe237c85	-0.15965469
133	0x3e87e54f	0.26542136
134	0x3eedb3b7	0.46426174
135	0x3d5f732f	0.054553207
136	0x3e5744e6	0.21022376
137	0x3ee8bc87	0.45456335
138	0x3dedb3ad	0.11606536
139	0x3ec4ac98	0.3841293
140	0xbdd6166d	-0.10453496
141	0x3db7c95f	0.08973955
142	0x3e3bbb08	0.18333066
143	0xbf08a637	-0.53378624
144	0xbf1b589f	-0.606821
145	0xbeaa5f98	-0.33276057
146	0xbee1cace	-0.4410004
147	0x3ed2246f	0.41043422
148	0xbe48c40d	-0.19606037
149	0xbedfb8af	-0.4369559
150	0x3f04da36	0.51895463
151	0x3f096e72	0.5368415
152	0x3ebd545c	0.36978424
153	0x3e982369	0.29714516
154	0xbeab9ccc	-0.33518064
155	0xbdf3a951	-0.11897529
156	0x3cfce2c5	0.03086985
157	0x3e959e75	0.29222456
158	0xbe89c652	-0.2690912
159	0xbd874237	-0.06604426
160	0x3edc505a	0.43030053
161	0xbe2359d8	-0.15952241
162	0x3eca1843	0.39471635
163	0x3eac849b	0.3369492
164	0x3d536ca0	0.051617265
165	0xbd9a204b	-0.07525691
166	0xbeadafe3	-0.33923253
167	0xbed53201	-0.41639712
168	0x3dbafe8f	0.091305844
169	0xbd360d57	-0.044446316
170	0x3cbbf59e	0.022944268
171	0xbe0e87d5	-0.13919003
172	0x3e98f50d	0.2987446
173	0x3efb474e	0.4907784
174	0xbde13d7a	-0.10998054
175	0xbe287a21	-0.16452838
176	0xbd27bbd2	-0.040950604
177	0xbecd1f37	-0.40062878
178	0x3bd2c919	0.006432664
179	0xbd4c6cc0	-0.0499084
180	0x3ed07101	0.40711215
181	0xbd851691	-0.06498445
182	0xbeb58136	-0.35450143
183	0x3f08c145	0.53419906
184	0xbeb327e2	-0.34991366
185	0xbea5ef45	-0.3240911
186	0xbe392b1b	-0.1808285
187	0xbf0711cf	-0.5276155
188	0x3e0d309e	0.13788077
189	0xbd210c27	-0.03931823
190	0xbea44b7d	-0.32088843
191	0x3eb43502	0.35196692
192	0x3e3f215f	0.18665074
193	0xbd47dc48	-0.04879406
194	0xbdc4c04c	-0.0960699
195	0xbe7806bb	-0.24221317
196	0x3e09847d	0.13429447
197	0xbe8e725d	-0.27821627
198	0xbe2ae8b7	-0.16690336
199	0xbda06740	-0.078321934
200	0xbea60138	-0.32422805
201	0xbe07e506	-0.1327096
202	0x3e41ee98	0.18938673
203	0xbe5ae1b9	-0.21375169
204	0x3d160416	0.03662499
205	0x3d365c11	0.044521395
206	0x3edee44b	0.4353355
207	0xbeebfa75	-0.4608952
208	0x3ea9052d	0.3301176
209	0x3ed09e6b	0.40745863
210	0xbe9a895b	-0.3018292
211	0x3e81edaa	0.25376636
212	0x3d29e329	0.041476402
213	0x3e7469ea	0.23868528
214	0x3ec69710	0.38787127
215	0x3e6862a6	0.22693881
216	0xbed9c0cd	-0.42529908
217	0x3f095f6f	0.53661245
218	0x3e984866	0.29742736
219	0xbee09a34	-0.43867648
220	0xbe104a86	-0.14090928
221	0xbeaa5ac5	-0.33272377
222	0xbebc6c09	-0.36801174
223	0xbe8ca189	-0.27466992
224	0xbecfde5e	-0.4059934
225	0x3eff6c90	0.49887514
226	0x3efd1f85	0.4943811
227	0x3ea27fc9	0.31738117
228	0xbe432b71	-0.1905954
229	0xbd90b732	-0.07066192
230	0x3ef01c8c	0.4689678
231	0xbee6b22c	-0.4505781
232	0xbee98cf7	-0.4561536
233	0xbf0ac093	-0.54200095
234	0x3ed561cf	0.41676185
235	0x3ea76ba5	0.32699314
236	0x3eb27f88	0.34862924
237	0x3da70951	0.08156074
238	0x3cda3931	0.0266386
239	0x3e48172c	0.1954009
240	0x3e51f9f8	0.20505512
241	0x3ebaac0a	0.3645938
242	0x3ecf91a6	0.40540808
243	0x3eb70d86	0.35752505
244	0x3ef277e0	0.47357082
245	0x3e64f5fb	0.22359459
246	0x3eca09ba	0.39460546
247	0xbd2204e6	-0.039555453
248	0xbecc2d3b	-0.39878258
249	0xbf016a0d	-0.50552446
250	0xbec7f976	-0.3905751
251	0xbea1ebad	-0.3162512
252	0xbd937768	-0.07200509
253	0x3ef7f1fb	0.48426804
254	0xbe74db0c	-0.23911685
255	0xbe1161f0	-0.14197516

conv_stack.1.bias f4 [32]
0	0x3d99f2fa	0.07517047
1	0xbd1c4802	-0.03815461
2	0x3e67ddd2	0.22643211
3	0xbe712497	-0.23549114
4	0x3d32b99c	0.043634042
5	0x3e35bbb4	0.17747384
6	0xbeb900c3	-0.36133394
7	0xbe496544	-0.19667536
8	0xbe369ca3	-0.1783319
9	0xbe07a414	-0.13246185
10	0x3e2be4ce	0.16786501
11	0x3c772321	0.015084059
12	0xbe82708e	-0.25476497
13	0x3e81363c	0.2523669
14	0xbe2c2716	-0.16811785
15	0x3dd89dd7	0.105769806
16	0xbea0d0b4	-0.31409228
17	0xbea812de	-0.32826895
18	0xbd0c7a6d	-0.03429644
19	0x3db08244	0.08618596
20	0xbd485def	-0.048917707
21	0xbe86db91	-0.2633939
22	0xbc9acc80	-0.018896341
23	0x3dab5c48	0.083672106
24	0x3e714833	0.23562698
25	0x3cd72f3c	0.02626764
26	0xbe76f323	-0.24116187
27	0x3e3de07a	0.18542662
28	0xbe73ccfa	-0.23808661
29	0x3d34beeb	0.044127386
30	0x3d203a60	0.03911817
31	0xbe683e4e	-0.22680017

conv_stack.4.weight f4 [64, 32, 3, 3]
0	0xbd04db31	-0.0324356
1	0x3c6976f9	0.014249557
2	0x3b5bfd08	0.0033567566
3	0xbd508a11	-0.05091292
4	0x3d72c41d	0.05926906
5	0x3d44733b	0.047961455
6	0x3ced9a65	0.029004285
7	0xbd845c0c	-0.06462869
8	0xbd5cac8c	-0.05387549
9	0xbca46225	-0.02006633
10	0x3c2eb273	0.010662663
11	0x3c892d40	0.01674521
12	0xbd095867	-0.033531573
13	0x3d9088ad	0.07057319
14	0x3c7143a3	0.0147255985
15	0x3c4bac5e	0.012431232
16	0x3d1fe1aa	0.03903357
17	0x3e523be0	0.20530653
18	0xbc17977f	-0.009252428
19	0xbd10d7a1	-0.03536189
20	0xbce80e04	-0.028326996
21	0xbdaa5344	-0.08316663
22	0xbd28c149	-0.041199956
23	0xbdd94b71	-0.106100924
24	0xbc3fe39c	-0.011711981
25	0x3b837c3f	0.004012614
26	0xbdd3547e	-0.1031885
27	0xbd3863c2	-0.04501701
28	0xbd957530	-0.07297742
29	0x3c64e1c0	0.013969839
30	0x3d2cc9e9	0.042184744
31	0xbd15d69f	-0.03658163
32	0xbd21eb61	-0.039531115
33	0xbae98605	-0.001781643
34	0xbd85fa28	-0.06541854
35	0x3d41aa72	0.04728169
36	0xbcd4be9a	-0.025969792
37	0xbc4fe885	-0.012689714
38	0xbd09462f	-0.033514198
39	0xbc0245b4	-0.007951189
40	0xbca11894	-0.01966504
41	0xbca94fcd	-0.020667935
42	0x3ce1e3d7	0.027574463
43	0xbc39b0c7	-0.011333651
44	0x3dcaa5d8	0.098949134
45	0xbbbcd2a9	-0.0057624173
46	0x3cca507e	0.024696585
47	0xbbc4b252	-0.0060027028
48	0xbd91ef6a	-0.07125743
49	0xbcb102b6	-0.021607738
50	0x3ca0c886	0.019626867
51	0x3bbda680	0.0057876706
52	0xbcdb87b7	-0.026798112
53	0xbdcbc57f	-0.09949779
54	0x3bdf4a4e	0.0068142777
55	0x3c82b8b4	0.015957214
56	0xbd7c31f6	-0.061571084
57	0x3c5caa5d	0.013468352
58	0x3cc81d4e	0.024428036
59	0x3d02ece2	0.03196419
60	0x3d750a03	0.059824
61	0xbc830d96	-0.01599769
62	0x3d24ea7d	0.040262688
63	0x3d06a4e9	0.032872114
64	0x3c1e2578	0.009652488
65	0x3d37b1a9	0.044847164
66	0xbce0544e	-0.02738395
67	0xbdad5878	-0.0846414
68	0x3ad9464f	0.001657674
69	0x3d62d86d	0.05538218
70	0xbce772db	-0.02825301
71	0xbd58477e	-0.052802555
72	0xbd0e2b7d	-0.034709442
73	0xbd8a3862	-0.067490354
74	0xbd9f4062	-0.07775952
75	0x3cef0e1e	0.029181536
76	0x3d1981cb	0.037477296
77	0xbc34515f	-0.0110057285
78	0x3d1d8e95	0.038466055
79	0x39bb0c84	0.00035676744
80	0x3dadd8b8	0.084886014
81	0xbbb76d7d	-0.005597769
82	0xbd8ba4b5	-0.06818525
83	0x3be4b559	0.006979626
84	0x3d4d7d5b	0.050168376
85	0x3d6da5e8	0.05801955
86	0x3d825b3b	0.06365057
87	0x3b9c3134	0.0047666077
88	0xbc0df4d8	-0.008664332
89	0x3d201204	0.03907968
90	0xbcfeb6f3	-0.031093096
91	0xbc30347c	-0.010754701
92	0xbd64d9e8	-0.055871874
93	0x3d975d90	0.073908925
94	0x3d2819ee	0.041040353
95	0x3d5b21f4	0.053499177
96	0x3dbf5076	0.093415186
97	0x3d2babff	0.041912075
98	0x3dfce51c	0.12348387
99	0x3d41b218	0.047288984
100	0x3c3478c8	0.011015125
101	0x3d576e1a	0.052595235
102	0x3d229420	0.039692044
103	0x3d5a3ec5	0.053282518
104	0x3dc4640d	0.09589396
105	0xbca9f535	-0.020746807
106	0xbcabf482	-0.020990614
107	0x3cd1245d	0.025530035
108	0xbcdd7721	-0.027034344
109	0x3cbd9ab8	0.023145065
110	0xbc2fafb0	-0.0107230395
111	0xbd7a77e8	-0.061149508
112	0xbc95ddd3	-0.01829425
113	0x3d4cbff5	0.049987752
114	0x3bd66bbc	0.0065436047
115	0xbdab61af	-0.08368241
116	0x3cbd6bd0	0.023122698
117	0x3cacf37a	0.021112192
118	0x3d237505	0.03990652
119	0x3d804dd9	0.06264848
120	0xbc1a6c71	-0.0094252685
121	0xbd01ef57	-0.031722393
122	0xbcf10080	-0.029419184
123	0xbb543ff5	-0.0032386754
124	0xbd8262a7	-0.06366473
125	0x388a9689	6.608392e-05
126	0x3d1ff082	0.039047725
127	0xbd6f96e6	-0.058493517
128	0xbdad5b38	-0.08464664
129	0x3d54fed1	0.052000824
130	0x3d75aea7	0.059981015
131	0x3d3f9840	0.046776056
132	0x3d32d54b	0.043660443
133	0xbc07090e	-0.008241905
134	0x3da06bd5	0.07833067
135	0x3cba6093	0.022751128
136	0x3b926747	0.004467878
137	0x3c0de33f	0.008660137
138	0xbd49745a	-0.049183227
139	0x3cddcbb1	0.027074667
140	0xbb7a4f2c	-0.0038194163
141	0x3ceea618	0.029131934
142	0xbdda442d	-0.10657535
143	0x3d880d9e	0.06643222
144	0xbd5a3b74	-0.053279355
145	0xbd7606bf	-0.060065027
146	0xbd89cc14	-0.06728378
147	0xbc7f92b5	-0.0155989425
148	0xbe0b02cc	-0.13575286
149	0xbe06d463	-0.13166957
150	0x3db4ddfd	0.088314034
151	0x3dd3098c	0.10304555
152	0xbde1483f	-0.11000108
153	0xbce2dbc5	-0.027692685
154	0xbd652aa7	-0.05594888
155	0xbd021164	-0.031754866
156	0x3d8698c9	0.0657211
157	0x3cfb9f7c	0.030715697
158	0xbd172a15	-0.036905367
159	0x3b617de8	0.0034407321
160	0x3d81b3db	0.06333133
161	0x3d915979	0.07097144
162	0x3d604058	0.054748863
163	0xbcbd5fbb	-0.023116937
164	0x3c3a1a34	0.011358786
165	0xbd4d2f7a	-0.050094105
166	0xbdaccf38	-0.08437961
167	0x3d543e9f	0.051817533
168	0xbd190a28	-0.0373632
169	0xbcf403d6	-0.029786985
170	0xbd3cb96e	-0.046075277
171	0xbd53c0fb	-0.051697712
172	0xbc83c9c9	-0.01608743
173	0xbddea01d	-0.10870383
174	0x3ce48d8b	0.027899524
175	0x3d46b779	0.048514817
176	0xbd2f51bf	-0.04280257
177	0x3d99313a	0.07480092
178	0x3d0bcc71	0.034130517
179	0x3d65a59d	0.056066144
180	0xbd3482f6	-0.044070207
181	0x3d1583c6	0.036502622
182	0x3c3d0c24	0.011538539
183	0xbd88dc21	-0.06682611
184	0xbd3246da	-0.0435246
185	0x3d88f891	0.06688035
186	0x3aad995a	0.0013244555
187	0x3d0fe51d	0.03513061
188	0xbd006022	-0.03134168
189	0xb97f7bef	-0.00024364864
190	0xbd63b9e5	-0.055597205
191	0xbcaa59a5	-0.020794699
192	0xbd6accbe	-0.057324164
193	0xbd4679fc	-0.048456177
194	0x3cb39ee5	0.021926353
195	0x3d6fb8a1	0.058525685
196	0xbc8d54b1	-0.017252298
197	0xbd069c07	-0.032863643
198	0x3ceb904f	0.028755335
199	0xbadb8dcd	-0.0016750634
200	0xbd54b392	-0.051929064
201	0x3c2358de	0.009969918
202	0x3c1f56be	0.009725271
203	0x3c05e3f0	0.00817202
204	0xbbb7c67d	-0.0056083784
205	0xbd7634dd	-0.060109008
206	0xbda45558	-0.080240905
207	0x3dabcf3c	0.08389136
208	0x3d7d4ea7	0.061842587
209	0xb6de6d80	-6.628863e-06
210	0xbca46e1e	-0.02007204
211	0x3900e3a4	0.00012291834
212	0xbc26689c	-0.010156777
213	0x3da74895	0.08168141
214	0xbd790007	-0.06079104
215	0x3df25a99	0.118336864
216	0x3ca34532	0.019930456
217	0x3cce129c	0.025155358
218	0xbb79debe	-0.003812715
219	0x3d0d386c	0.034477636
220	0xbd2dfe51	-0.042478863
221	0xbe1addc4	-0.1512366
222	0x3db20406	0.08692174
223	0x3cfdf457	0.0310003
224	0xbd8e7ba9	-0.0695718
225	0xbcfd3c01	-0.030912401
226	0xbd96ec76	-0.0736932
227	0xbe060519	-0.13087882
228	0xbd56eeb3	-0.052473735
229	0xbdb5880a	-0.08863838
230	0xbd5810a4	-0.052750245
231	0x3cb70759	0.02234237
232	0xbd9e80f0	-0.077394366
233	0xbcaa5864	-0.020794101
234	0xbc976e34	-0.018485166
235	0xbcfe6198	-0.031052396
236	0x3d253d7d	0.040341843
237	0x3de8eaa3	0.113728784
238	0x3dd76ca4	0.105187684
239	0xbd022158	-0.03177008
240	0x3e06dfa3	0.13171248
241	0xbdf7e5bb	-0.121043645
242	0x3debe7ac	0.11518797
243	0xbd25de55	-0.040495235
244	0x3d1b539b	0.03792153
245	0x3bf5c267	0.007499981
246	0xbe011fff	-0.12609862
247	0xbd880b27	-0.06642752
248	0xbc68e2a7	-0.014214194
249	0x3c853faa	0.016265709
250	0xbdd5a293	-0.10431399
251	0xbdd5f8f0	-0.10447872
252	0x3c3caf6d	0.011516434
253	0x3cda14b8	0.026621208
254	0xbde20993	-0.110369824
255	0x3cd6da92	0.02622727

conv_stack.4.bias f4 [64]
0	0xbdb49954	-0.088183075
1	0xbcd4709e	-0.025932606
2	0x3d5034b8	0.050831527
3	0xbd44cd41	-0.048047308
4	0xbd82707c	-0.06369111
5	0xbd862a3b	-0.065510236
6	0xbba0d48d	-0.0049081505
7	0xbc2d62c2	-0.010582628
8	0xbd1af9d8	-0.037835926
9	0x3c38db86	0.011282807
10	0xbcd05227	-0.025429798
11	0xbd07f291	-0.033190314
12	0x3cdfef13	0.02733568
13	0xbc281fca	-0.010261485
14	0xbbd36783	-0.0064515485
15	0xbda35612	-0.07975401
16	0xbc513aaa	-0.012770334
17	0x390df070	0.00013536378
18	0xbd7d482d	-0.06183641
19	0xbb87aac8	-0.0041402318
20	0xbd52097a	-0.05127857
21	0xbd59ca4a	-0.053171434
22	0xbd808252	-0.062748566
23	0xbcab420d	-0.020905519
24	0xbcadf162	-0.021233264
25	0x3c66acb7	0.014079264
26	0x3cc9df9c	0.024642758
27	0xbd2af098	-0.041733354
28	0xbc335b1b	-0.010947014
29	0x3c63f393	0.013913053
30	0x3c740a18	0.014894985
31	0x3cf44264	0.029816814
32	0x3c1abe84	0.0094448365
33	0x3bfd741a	0.0077347877
34	0x3c251455	0.010075648
35	0x3d4f9747	0.05068138
36	0x3c010897	0.007875583
37	0xbd1aca55	-0.037790615
38	0xbc39f000	-0.011348724
39	0xbb58de56	-0.0033091507
40	0x3d624b25	0.055247445
41	0xbc8211ea	-0.015877683
42	0x3d221098	0.039566606
43	0x3cdde3b1	0.02708611
44	0xbb97203a	-0.004611996
45	0xbd39badc	-0.04534422
46	0x3d3f1edb	0.046660285
47	0xbcce1f36	-0.025161367
48	0x3cd4fdf0	0.025999993
49	0xbccbf8fe	-0.024899002
50	0xbcf3b492	-0.029749189
51	0xbd8e176f	-0.06938063
52	0xbd29a475	-0.041416604
53	0xbe04e112	-0.12976483
54	0xbd4b7903	-0.049675953
55	0xbccffb24	-0.025388308
56	0xbd33643f	-0.043796774
57	0xbd911b8a	-0.07085331
58	0xbd0f32c8	-0.03496054
59	0xbce0198e	-0.027355935
60	0x3c700de0	0.014651746
61	0xbd01efa6	-0.031722687
62	0x3b9a848a	0.004715507
63	0xbc47b7c0	-0.0121898055

linear.weight f4 [10, 3136]
0	0xbca9c430	-0.020723432
1	0x3c8d5e74	0.017256953
2	0x3a1173cb	0.00055485655
3	0xbd056bd8	-0.03257355
4	0xbcb5e299	-0.022202777
5	0xb92d8d2e	-0.00016551159
6	0xbc1682e2	-0.009186478
7	0x3ad83c01	0.0016497375
8	0xbd66eb1b	-0.056376558
9	0xbcc122c9	-0.023576157
10	0x3ca9c661	0.020724477
11	0x3cb9a724	0.022662707
12	0x3c005792	0.007833378
13	0xbcde09ca	-0.027104277
14	0x3c3bf573	0.011472094
15	0xbc016a68	-0.007898904
16	0xbdb27619	-0.087139316
17	0x3d55eae3	0.05222596
18	0x3da672f9	0.08127398
19	0x3ce7a63f	0.028277515
20	0xbc29cc6f	-0.010363682
21	0x3d355d22	0.04427827
22	0x3c3d8ff7	0.011569968
23	0xbcd3bbf3	-0.025846457
24	0xbbf5cf5e	-0.0075015267
25	0x3cc1ce8a	0.023658056
26	0x3b8c9dd9	0.004291278
27	0xbb691c88	-0.0035569984
28	0x3d66c16d	0.05633681
29	0x3db5741b	0.08860036
30	0x3d3e85f7	0.046514478
31	0xbbeaf259	-0.0071700034
32	0xbd200450	-0.039066613
33	0xbcb25737	-0.021770103
34	0xbcc27d9c	-0.023741536
35	0xbcb8e84f	-0.02257171
36	0x3cfe9397	0.031076236
37	0x3c1ad201	0.009449483
38	0x3bf42266	0.0074503897
39	0xbc8652d3	-0.016396916
40	0x3bbce228	0.0057642646
41	0x3c03a330	0.008034512
42	0x3b1b0b83	0.0023657985
43	0x3af4520f	0.0018640178
44	0x3b5b18dc	0.0033431565
45	0xbbe427f4	-0.0069627706
46	0x3c251a77	0.0100771105
47	0xbbb9fbdf	-0.0056757773
48	0x3ba19cb0	0.0049320087
49	0x3a9499bd	0.0011337321
50	0xbbe52ba9	-0.00699373
51	0x3c4c0e3c	0.012454566
52	0x3c46a660	0.012124628
53	0xbb1527e0	-0.0022759363
54	0xbbdc43b5	-0.0067219385
55	0xbc02e1cf	-0.007988407
56	0xbc4494c4	-0.011998359
57	0x3be3476f	0.006936006
58	0xbc295dd7	-0.010337315
59	0x3c895b92	0.016767297
60	0x3d28a8bc	0.041176543
61	0x3cfb83d3	0.030702507
62	0x3b2b53f0	0.002614256
63	0x3ce2d288	0.02768828
64	0x3d4c4d5d	0.049878467
65	0x3d31f0ae	0.04344242
66	0xbca32d22	-0.019918982
67	0xbb177bb8	-0.0023114514
68	0xbd054624	-0.032537594
69	0xbd4f8fd4	-0.050674275
70	0x3cd1914a	0.025581975
71	0x3b00e18e	0.001966569
72	0xbc59d7ce	-0.013296081
73	0x3ae4b7a0	0.0017449744
74	0xbdc58bd8	-0.09645814
75	0xbe0c0f99	-0.13677825
76	0xbdddd974	-0.108324915
77	0xbc973d75	-0.018461922
78	0xbcad3eed	-0.02114817
79	0xbd4aa7bd	-0.049476374
80	0xbde68631	-0.11256064
81	0xbe0b70ae	-0.13617203
82	0xbd959c51	-0.073052056
83	0xbd28cad0	-0.041209042
84	0xbcaf1bee	-0.021375623
85	0xbd577e47	-0.05261066
86	0xbddab8af	-0.10679757
87	0xbd50b1bb	-0.050950747
88	0x3d8e26fe	0.06941031
89	0x3e1d8783	0.15383725
90	0x3db166d1	0.08662189
91	0x3c6d9de0	0.014502972
92	0xbc5761ce	-0.013145877
93	0x3c5c66b0	0.013452217
94	0x3d8fb877	0.07017606
95	0x3d86c4cf	0.06580507
96	0x3d122561	0.03568018
97	0xbbf152ab	-0.007364591
98	0x3c52fbff	0.012877463
99	0xbca26d42	-0.019827489
100	0xbcdd5dde	-0.027022298
101	0xbd7b267b	-0.061315995
102	0xbd81138c	-0.063025564
103	0xbc643c3c	-0.013930377
104	0x3becca75	0.007226283
105	0xbca2f970	-0.019894332
106	0xbd2c0cc2	-0.042004354
107	0xbd1b46c9	-0.037909303
108	0xbc95dd1e	-0.018293913
109	0xbd17e16d	-0.037080217
110	0x3b9b41d3	0.0047380715
111	0x3a9c6411	0.0011931678
112	0xbc91a4ff	-0.017778872
113	0x3d896298	0.067082584
114	0x3d04d1b1	0.03242654
115	0xbd397c4e	-0.04528456
116	0x3da11945	0.07866148
117	0x3ddb8547	0.1071878
118	0xb917448f	-0.00014426022
119	0x3ca06d75	0.019583443
120	0x3dd8549c	0.10563013
121	0x3e4e0ca3	0.20122008
122	0xbd5d429a	-0.054018594
123	0x3e1d6af6	0.15372834
124	0x3daebf7b	0.08532616
125	0x3c2d60de	0.010582177
126	0x3bf7a69e	0.007557704
127	0x3c8db4a4	0.01729805
128	0x3d3d22ea	0.046175875
129	0xbdc8c402	-0.098030105
130	0xbd782766	-0.06058445
131	0xbd109862	-0.035301574
132	0xbc80cbaf	-0.015722124
133	0x3c55d0e6	0.013050294
134	0xbbbcbe72	-0.0057600075
135	0xbd8d0aa8	-0.06886798
136	0xbdb6671c	-0.08906385
137	0xbe1cb658	-0.15303934
138	0xbdbce1ba	-0.092227414
139	0xbbe7aae0	-0.0070699304
140	0xbb15ef1d	-0.0022878118
141	0xbb0d66f8	-0.0021576267
142	0xbc5622fa	-0.0130698625
143	0xbd1e127e	-0.038591854
144	0xbdaeb023	-0.08529689
145	0xbd27f6d5	-0.04100688
146	0x3b505727	0.0031790228
147	0xbc83bdd0	-0.01608172
148	0xbc5f33b2	-0.013623165
149	0x3c175a91	0.009237901
150	0x3c3fc933	0.0117056845
151	0x3cd2239a	0.025651742
152	0xbc21e7d4	-0.009881932
153	0xbbc4150d	-0.0059839548
154	0x3c8d69f5	0.017262438
155	0xbb8ca3e7	-0.0042919996
156	0x3c585996	0.013204953
157	0x3c20a592	0.0098051
158	0xbb0256f7	-0.001988826
159	0x3c9332be	0.017968532
160	0x3b81199a	0.0039398195
161	0xbc443fde	-0.011978118
162	0x3b70329d	0.0036651262
163	0xbcd0231e	-0.02540737
164	0xbcbad6fa	-0.022807587
165	0xba80a640	-0.0009815171
166	0x3c83c64d	0.016085768
167	0xbc13f42d	-0.009030384
168	0xbc18e300	-0.009331465
169	0x3d194e1f	0.037428018
170	0xbc173659	-0.009229266
171	0xbcaa5b5f	-0.020795522
172	0x3c664536	0.014054587
173	0x3c5c8d16	0.013461372
174	0x3a116330	0.0005546091
175	0x3cb21119	0.021736668
176	0x3d0fc0a2	0.03509582
177	0x3a4c4bbc	0.0007793268
178	0xbc044740	-0.008073628
179	0x3c18f3f7	0.0093355095
180	0xbbdc3010	-0.0067195967
181	0xbafdfa8c	-0.0019377037
182	0xbb764df8	-0.0037583094
183	0x3c100c88	0.00879205
184	0x3bae54dd	0.005320175
185	0x3b8dcdad	0.004327497
186	0x3c6cc913	0.014452237
187	0x3b3c13e3	0.0028698377
188	0xbc8e586e	-0.017376151
189	0x3bf0fc62	0.007354305
190	0xbc4f3a80	-0.012648225
191	0x3b74deef	0.0037364324
192	0x3bb91ede	0.0056494316
193	0x3ba5812f	0.0050508003
194	0x3c4ff8e2	0.012693616
195	0xbb910bbc	-0.0044264477
196	0xbc294547	-0.010331458
197	0x3c02424f	0.0079503795
198	0x3b87a046	0.004138979
199	0x3bcc40ab	0.006233295
200	0xbbdc0bc2	-0.006715269
201	0x3d07a14d	0.033112813
202	0xbb0e3e30	-0.0021704547
203	0xbc43683a	-0.011926705
204	0xbc96c718	-0.018405482
205	0xbc149ac1	-0.009070099
206	0xbc91cba7	-0.017797304
207	0x3ce39be1	0.02778429
208	0x3c64f91f	0.013975411
209	0x3d4f24c2	0.050572164
210	0x3b92426c	0.0044634845
211	0xbbb83e97	-0.0056226957
212	0xbce96bcb	-0.028493783
213	0xbbdaa7b9	-0.006672826
214	0xbcbcaa6f	-0.023030488
215	0x3d4106e9	0.04712573
216	0xbc91d8ce	-0.017803576
217	0x3acba3d4	0.0015536495
218	0xbb34e503	-0.0027602322
219	0xbce7c58f	-0.028292445
220	0xbcbf5713	-0.02335695
221	0xbd491459	-0.04909167
222	0xbd467c1a	-0.048458196
223	0xbd2277bb	-0.039664965
224	0xbb1d9a8e	-0.002404842
225	0xbb7e6305	-0.0038816344
226	0xbcc44580	-0.023958921
227	0xbd2eb4f2	-0.04265303
228	0xbd684b1a	-0.056712247
229	0xbd62240c	-0.05521016
230	0xbd0d0616	-0.034429632
231	0xbcebe512	-0.028795753
232	0x3c0609fd	0.008181092
233	0xbbb851f1	-0.0056250026
234	0x3cb0653d	0.02153265
235	0xbca38bbc	-0.019964091
236	0xbc89dcf3	-0.01682899
237	0xbcf24f01	-0.029578688
238	0xbb9c490f	-0.0047694515
239	0xbc448adc	-0.011995997
240	0xbc2936d7	-0.010328016
241	0x3b1680b9	0.0022964908
242	0xbbb25767	-0.005442548
243	0x3c58129f	0.013188033
244	0x3bcc4a43	0.0062344386
245	0xbc909821	-0.017650666
246	0x3b6c0619	0.0036014377
247	0xbb486f25	-0.0030583825
248	0xbbc9a5ee	-0.0061538136
249	0xbc924363	-0.017854398
250	0x3ad22b5e	0.0016034653
251	0x3c400178	0.0117191
252	0x3b8bd418	0.004267227
253	0x3b8c9d70	0.004291229
254	0x3c5649b3	0.013079095
255	0xbc43ddd0	-0.01195474

linear.bias f4 [10]
0	0xbd132446	-0.035923265
1	0x3bda1e11	0.006656416
2	0x3be6851a	0.00703491
3	0x3d05b27b	0.032640915
4	0x3cd88ae8	0.026433423
5	0x3d337746	0.04381492
6	0xbcfc351c	-0.030787043
7	0xb8b1e162	-8.4819985e-05
8	0x3c8f5739	0.017497646
9	0xbcda3903	-0.026638513
