web-service/app/ml-models/digit_dense3.pt (torch, 222591 bytes, 6 tensors)

linear_stack.0.weight f4 [64, 784]
00000000: 6a17 363d bc14 893b 43b4 3b3c 99fc 493d
00000010: 8c8c 28bb f8c6 073d 8332 453d f676 333b
00000020: 0729 183c 9943 0a3d 90bc 703d ae53 a0b9
00000030: 7854 e0bb 9d85 d8bb f5c1 7d3c a25b bf3b
00000040: ac57 263c f93f 90bc aea7 343d 2581 fcbc
00000050: 7471 e13c e0d8 84bb 4be9 893b 193f 5d3d
00000060: 772c 713d a279 093d 31d7 c53c 9b60 143c
00000070: 95bb 2e3d fce9 20bc d57f 673d bbc3 b33c
00000080: 4937 183d e2b5 493d f050 093d 025c 2bbc
00000090: bbca 5dbc 897e 22bc 57eb 873c 9f50 073d
000000a0: eb91 9db8 87b0 303d b37a 0b3d a60b 02bd
000000b0: 5619 a63c 687b 30b9 1b3a a9bc 80df bb3c
000000c0: 03f3 f9bc feb3 3ebc 2c94 56bc ef8e de3c
000000d0: 0965 623c f5b5 2d3d f23d 2cbc cb5e 013d
000000e0: c31e 403d eff9 423d 63ed 083d 9e19 bb3c
000000f0: 19e9 54bb 3abe 453d 4af8 483d 137c 5abc
00000100: 95b7 2f3d 95fe 143d eea4 e1bb 71cd dbbc
00000110: 3861 d2bc 3172 11bd e149 3bbd 9d55 383c
00000120: 9c1d 46bd 4d41 53bd 2792 a73c 3cce 33bd
00000130: 9274 e7bd 5af6 8fbd f99d 57bd 92e1 013c
00000140: dfdf 033d 7f4d 263d f6d5 31bc 1de2 553d
00000150: b9d8 c3ba f7e2 0ebc 9efe 2c3d 8e86 aabb
00000160: 9f27 223d 7cf8 d73c d783 4d3d 0c4a 15bc
00000170: 2a71 643c a38e 343c 0c9e c0bc 7be1 103d
00000180: 6be6 9c3d f310 783d 97b1 623c 4427 9f3d
00000190: e01b 773c 1368 8c3c 8aed f9bc 84c6 08be
000001a0: b5fc cbbd c796 5fbd 208e 9cbd b780 17bd
000001b0: 1595 873c 477e dc3c 87c5 02bc fbab 983c
000001c0: 214a 6b3d 49cf ccba 60d7 473d c26b b13c
000001d0: d680 773b dc7c 3a3c 6771 bb3c c150 843c
000001e0: 4c39 9dbc f0dd c2bc e406 c53c 4c8e 823d
000001f0: 29bd 7abc d9e3 c83d 59e3 633d 230f 30bc
00000200: 25e2 253d 2908 1c3d e6e6 d03c 4f61 f4bd
00000210: 4deb bebd 3189 f6bc 9454 3dbd fcbd 54bd
00000220: b9db fdbc a8e9 163b 776b 873c 5ede 733d
00000230: c94b 143d 42ab 31bc 887d d13b f3a2 1c3d
00000240: 25f1 173c 61ce fd3b 7711 cc3c 04d0 023d
00000250: 5bce 3b3d beb7 b43c 8f8a 08bd 709f f63d
00000260: 8e37 003d b85e 583b 7407 afbd 823a 1b3c
00000270: 28e0 823d 5205 4c3d 8adb d3b9 f537 9dbd
00000280: 9cbf 98bc cdae 5b3d e7ab 30bd 651d 5cbd
00000290: 510e 873b 5981 acbc 3600 c33c a3a0 753a
000002a0: 57d7 f43b e58f 9a3c c4a3 97bc ee69 903c
000002b0: 4e9f 4a3c 7bf3 f03a 3817 c1bc da6a 843d
000002c0: bcd8 083d ea00 02bd 2e92 2c3d 38ec b53d
000002d0: 785c cb3b 6a6c 08bd e95b fd3d beca 0d3e
000002e0: 95f1 14bd 3f0f 083e 8865 313d d213 32bd
000002f0: ac91 0dbd cbc5 883c 157a 77bd a4da 51bc
00000300: d556 e8bc ba89 053d 19c5 e33c 0baa b93a
00000310: d5d6 a33c 55d0 ecbb 01bd cabc 68e3 33bc
00000320: f550 a8bd 2e31 04bd 83f8 4ebb 9e61 a23c
00000330: dd1c 473d 7b09 27bd 2b65 1b3d 83aa 963d
00000340: e493 923d 74c4 193e b613 133e 8b1c bf3d
00000350: 25a5 0a3d d1c3 c23d 90a5 1d3d 041c ba3c
00000360: f490 ba3b 0b2b 6bbd 970d d3bc e7fd 41bd
00000370: 3c04 0dbd d46e 8fbc 481a 933c a560 de3c
00000380: fe8a 453d a6b5 343d 4432 11bc 1dbf 16bd
00000390: 3e62 073d 3266 243d 59ef be39 885b 0dbd
000003a0: 564e 10bd 099c 32bd 2acb 723d e498 8fbd
000003b0: d635 aebd f4fd a33d 4b63 ac3d 4b06 a83d
000003c0: d3fc 493e 544a 303e 14e0 ccbb 1d49 523d
000003d0: f5cb 873c 9527 dbbd 7bf0 f3bd 2ada b0bd
000003e0: 5cb0 f5bc b2c2 28bd 31f0 0bbd 3373 9cbc
000003f0: 358f 13bc ab1f 0b3d 662e ee3b 1df4 87bc
0.044455923 0.00418338 0.011456552 0.04931316 -0.0025718538 0.033148736 0.048143875 0.0027384139
0.009287125 0.033755872 0.058773577 -0.00030579924 -0.006846007 -0.006607725 0.0154881375 0.005839781
0.010152739 -0.01760863 0.044105224 -0.0308233 0.027519919 -0.004054174 0.004208719 0.054015253
0.058880296 0.033563264 0.024150463 0.009056236 0.04265936 -0.009821411 0.056518395 0.021943917
0.0371621 0.049245723 0.033524454 -0.010458948 -0.013537104 -0.009917864 0.016591711 0.03303587
-7.513523e-05 0.0431371 0.034052562 -0.03174939 0.020275753 -0.0001683064 -0.02065759 0.022933722
-0.030511385 -0.011639593 -0.01309685 0.027167765 0.013818034 0.042409856 -0.010512816 0.031584542
0.046904337 0.047601636 0.033429515 0.022839364 -0.003248757 0.048277117 0.049064912 -0.013335246
0.042899687 0.0363756 -0.006886116 -0.02683136 -0.025681123 -0.035509292 -0.045724753 0.011250881
-0.04836808 -0.051575948 0.020455433 -0.043897852 -0.11301531 -0.0702941 -0.05264089 0.007927315
0.032195922 0.04060125 -0.010854235 0.05221759 -0.0014941908 -0.008721105 0.04223501 -0.0052040284
0.039588567 0.026363604 0.05017456 -0.009111892 0.013942996 0.011020335 -0.023512863 0.035371285
0.07661136 0.06056304 0.013836286 0.07771161 0.0150823295 0.01713947 -0.030508775 -0.13356978
-0.099603094 -0.05458715 -0.07644296 -0.036987986 0.01655058 0.026915682 -0.0079816645 0.018636694
0.05744374 -0.0015625741 0.048789382 0.021657828 0.0037766001 0.011382308 0.022881223 0.016151788
-0.01919236 -0.023787469 0.024051137 0.06374797 -0.015303888 0.098090835 0.055636737 -0.010745796
0.04049887 0.03809372 0.025500726 -0.11932623 -0.09322224 -0.030094715 -0.046223238 -0.051938996
-0.030988561 0.0023027454 0.016530735 0.059538238 0.036205087 -0.010844054 0.0063931383 0.038241338
0.009273802 0.0077455495 0.024910672 0.03193666 0.045851093 0.022060271 -0.033335265 0.12042129
0.03130298 0.003301544 -0.085463434 0.009474399 0.06390411 0.04980976 -0.00040408626 -0.076766886
-0.018646054 0.0536335 -0.04313269 -0.05373897 0.0041215797 -0.021057772 0.023803812 0.0009369945
0.0074719596 0.018867442 -0.018510707 0.017628636 0.012367083 0.001838311 -0.023570642 0.06465693
0.03340982 -0.031739153 0.042131595 0.08882946 0.0062060915 -0.033306517 0.12371046 0.13846871
-0.036363203 0.13287066 0.04330972 -0.043475933 -0.03456275 0.016695878 -0.06041916 -0.012808476
-0.028361717 0.03260205 0.027803944 0.0014165057 0.0199999 -0.0072269836 -0.024748327 -0.010979511
-0.08218566 -0.032273464 -0.003158123 0.019821938 0.04861151 -0.040780526 0.03793828 0.07356741
0.07157114 0.15016347 0.14362988 0.09331616 0.0338489 0.09510005 0.03848797 0.022718437
0.0056935493 -0.057414096 -0.025763316 -0.04736128 -0.034427866 -0.017508902 0.017956868 0.027145693
0.048228256 0.044118546 -0.008862082 -0.036803354 0.033052675 0.040136524 0.00036417952 -0.03451112
-0.035230957 -0.043605838 0.059275784 -0.070115834 -0.08506362 0.08007422 0.08417376 0.08204325
0.19725351 0.17215854 -0.006252298 0.051339258 0.016576746 -0.10700909 -0.119111024 -0.086353615
-0.029991321 -0.0412013 -0.03416461 -0.0190979 -0.009006311 0.033965748 0.0072687147 -0.016595894

linear_stack.0.bias f4 [64]
00000000: dc1a f1bc 0e8f c93a 4632 47bd 9973 3fbd
00000010: 3fa7 cbbc 1b71 41bb 575c f2bc acd6 09bb
00000020: b347 36bd e758 0fbd bcc4 c1bb 4ed3 a1bc
00000030: 122b e0bd 0355 fabc 98ca a6bb 12f4 5fbd
00000040: 576d 5fbd b4f4 21be b322 3cbd a09d 913c
00000050: 6ddf 133d cb09 5abd b974 a1bc f9dd e0bc
00000060: 20e6 e8bc e264 e7bd fd6b c2bd b29e 1abc
00000070: fdb1 cbbc 6b4f 90bc 98b4 ccbd 062b 3bbc
00000080: 09db b2bc a2c4 6bbd 1338 27be fd2b 0ebd
00000090: 6e79 173d 11f3 5ebc e9bd 19bc 190a b5bd
000000a0: 96b1 1abd 0433 5f3b 1dd7 433d 68b2 aaba
000000b0: f814 87bd 9735 11bd e46a 963d c4e5 28be
000000c0: 99bf 8bbc 3d36 03bd 938f 98bd f78f 7bbd
000000d0: d602 8abd 62b2 12bd 6764 b6bc 21e3 75bd
000000e0: ccc3 c2bb 5bac 79bd 51c0 573d 0994 f03c
000000f0: 9d19 05bc 242d f2bd b105 87bd 22df 03be
-0.029431753 0.0015377717 -0.04863193 -0.046741102 -0.024860023 -0.002951688 -0.029585047 -0.0021032495
-0.04450197 -0.034996893 -0.005913345 -0.019754078 -0.10945715 -0.030558115 -0.005090069 -0.054676123
-0.054547634 -0.15816003 -0.04593153 0.017775357 0.036101747 -0.053231996 -0.019708978 -0.027449595
-0.028430045 -0.11298539 -0.094932534 -0.00943725 -0.024865145 -0.017615994 -0.09995383 -0.011423832
-0.02183296 -0.05756057 -0.16329984 -0.03470992 0.03698104 -0.013607756 -0.009383657 -0.088398166
-0.037767015 0.0034057507 0.04781257 -0.001302314 -0.06595796 -0.035451498 0.073446065 -0.16493899
-0.017059134 -0.032034148 -0.074492596 -0.061416592 -0.06738822 -0.03581465 -0.022264672 -0.06003106
-0.005943751 -0.060955387 0.05267364 0.029367464 -0.008123782 -0.11825016 -0.065928824 -0.12878087

linear_stack.2.weight f4 [64, 64]
00000000: a774 b1be e5b0 cdbe db34 4dbd 4fbd b1be
00000010: 4601 8e3d ad67 10bd fc4f bfbd 72cf b73e
00000020: fd07 bebd 6333 a43c 5384 5dbc 323a c73d
00000030: d22d 363e beff 9dbd b516 873e 0290 b03b
00000040: 1d4b 82bd aa25 b3bd 0666 80be 7795 433d
00000050: e1d5 9b3e 8a6c d23c 2cd9 173d 85af 873e
00000060: 7694 613e 9a2a 6e3d 1963 7f3e 4063 e1bd
00000070: 7623 a6bd 8d31 f4bd d384 0d3c f337 7b3d
00000080: 4c3a d0be 5983 07bd 5778 da3c 2cd1 c5be
00000090: 964b 813d 30a5 9ebd 3501 18be 898c 5ebe
000000a0: 8cca 4cbe 0006 58bd d400 a6be cea4 c93d
000000b0: e703 5fbe 7e04 b9bc 4817 d6be 4f46 6dbe
000000c0: 6b1c 9a3d a44a dd3d aa3f 8d3e bd99 9ebc
000000d0: d30b 81bd 0625 6bbd 87d4 c8bd 51bd 183e
000000e0: 15e0 2ebe b1b4 6ebe ae3e c43c 50d9 94bd
000000f0: 316c 02be 6c78 2cbe 80dd 9dbd 5a10 873d
00000100: 77c9 9ebe 583e 9dbe 64dc 493e 7277 0dbe
00000110: 5fa7 f8bd 3029 b23d af10 19be b699 4ebe
00000120: c04f cd3d f892 aebd 0ef1 ba3d a34c 99bd
00000130: 2ea7 b7bd 84f4 e3bc 436f 433e 380d 593d
00000140: a54e 64be c025 ccbd e944 113e d210 fcbe
00000150: 5c0b 233e eff0 a8bd 1cf4 5a3c 8335 babe
00000160: 8828 14be f2f3 9e3c 89f8 a6bc 1b5f 7b3e
00000170: c6b9 e7be 4941 c5bd b332 3c3e acab 783e
00000180: 6378 bfbe b52a 153d d2a7 51be 9126 e23e
00000190: a28e cebc 6dd0 053e 5980 60bd b60b 79be
000001a0: 9082 2abe b53f 13bd 3187 b23c cf19 223e
000001b0: fb6a 06be 4f12 81be 3aa7 b03d c02e 2c3e
000001c0: 1499 cc3c 4cbf 7fbd d580 60be 17b3 a3bd
000001d0: d9b7 afbc b92a 50be e27e 88ba e9df b43a
000001e0: 5b6a efbc 0878 ccbc 5db4 9dbd 68e9 5d3e
000001f0: 9832 7e3e f00f 113e 5397 253f 783f d6bd
00000200: b694 e03d 9ac5 3bbe fdce b23c 972f 8bbe
00000210: 04f8 f2bc c62c f4bc 0dd8 8c3e db88 92bd
00000220: cc88 d63d fa01 983c 2cf6 56be d1f2 2ebd
00000230: 7dac 83be 155b 693b d593 a93c 2493 b0bd
00000240: 905b aa3d 5ddc 983b 488a c93d a976 32bd
00000250: 8fd7 33be db68 4abd d15e 41bc 4916 6b3e
00000260: b96a fa3d 4b7d bdbd dce6 03be dfda 31be
00000270: d528 11bc 5e2a b9bd a388 00be 84a4 d5bd
00000280: 6177 473d 2518 1d3d 34e1 e3bd 440f b7bd
00000290: 8501 d03d 4fbf e8bc a3d5 f8bc fb0c 71be
000002a0: 93b8 54be 6035 a6bc 6576 c1be 2c33 f93d
000002b0: 8765 953e a026 d1bd 18c0 39bd 218e 9abd
000002c0: 95e8 69bd 4a1a b13d d436 59be 827e b63c
000002d0: 98e8 abbe fd57 f6bb 529c 28be 15d5 323d
000002e0: 0b34 c93d 806f 99bd 1476 2cbd b752 27bd
000002f0: 6fa7 51be bfd8 99bc 6172 3a3e dbee 02bd
00000300: 4b95 bcbd 7c17 843c 4dbd bb3e 3e57 aebe
00000310: c8dc 0abe ba82 cdbd e74d aebe 647e 54bd
00000320: f57c 033d f9f6 5e3d 18e3 fc3c a664 d7bd
00000330: fb6c 81be 83f4 3dbd 6645 893e 3c61 593b
00000340: 7925 e73d 5f59 85bd 005e d0bd 0ceb a63d
00000350: 2792 c93e 1f7d 8cbd eb1b b5bd ff46 98bd
00000360: d318 913d 1c21 ab3d 65f7 a0bc dabf d6bd
00000370: 0803 22bd 3eed e2bd b66d 8cbe ef84 79bd
00000380: 2a89 f13d 4f38 b23c 6659 38be 75e4 a4bd
00000390: 2733 413e 587c 19bd 72a9 773d c2d8 b9be
000003a0: d4cf 78be 12f0 803d df55 7dbe cb66 70be
000003b0: 80ba a9bd 1c8b bcbd bb97 1abf 0730 6ebe
000003c0: c1b8 3ebc fd85 adbd a1ab 123e 2a74 be3d
000003d0: ddf8 31be df81 8a3d 4971 0abe 41c7 8d3e
000003e0: 3b46 b9bd 1113 8ebd 5d55 453d edb0 a4ba
000003f0: 0adc 3dbe 7df8 193d 98cb 89bd c20a d2bd
-0.3465931 -0.40174022 -0.050099235 -0.34714743 0.06933837 -0.035255123 -0.09341428 0.35900456
-0.092788674 0.020044034 -0.013520318 0.09727897 0.17790917 -0.077147946 0.26384512 0.005388261
-0.06361983 -0.08747418 -0.25077838 0.047749963 0.30436614 0.025686521 0.037072346 0.26501098
0.2202929 0.058146097 0.24940147 -0.110052586 -0.081122324 -0.119235136 0.008637625 0.061332654
-0.40669477 -0.033084247 0.02666871 -0.38636148 0.06313245 -0.07746351 -0.1484421 -0.21733297
-0.1999914 -0.052740097 -0.32422507 0.09845887 -0.21778832 -0.02258515 -0.41814637 -0.23171352
0.075249515 0.10805252 0.27587634 -0.019360418 -0.063010834 -0.057408355 -0.098061614 0.14915968
-0.17077668 -0.23311116 0.02395567 -0.072680116 -0.12736584 -0.16842812 -0.077082634 0.06594916
-0.3101308 -0.30711627 0.19712979 -0.13815096 -0.121412985 0.08699262 -0.1494777 -0.20175824
0.10024977 -0.08524126 0.09128009 -0.074853204 -0.08967434 -0.027826555 0.19085412 0.052991122
-0.22295626 -0.09968138 0.14186443 -0.49231583 0.15922302 -0.082490794 0.013363864 -0.3636895
-0.14468586 0.019403432 -0.020382183 0.24547999 -0.4525892 -0.09631593 0.18378715 0.24284238
-0.37396535 0.03641768 -0.20474175 0.4417005 -0.025214497 0.1306779 -0.054809902 -0.24320874
-0.16651368 -0.035949428 0.02179298 0.15830158 -0.13126747 -0.2520928 0.08625646 0.16814709
0.024975337 -0.062438294 -0.21924146 -0.07993143 -0.02144997 -0.20328797 -0.0010413791 0.0013799641
-0.029225519 -0.02495958 -0.07700417 0.21671069 0.24823987 0.14166236 0.6468403 -0.104613245
0.10965864 -0.18337098 0.021827215 -0.27184746 -0.029659279 -0.029806506 0.27508584 -0.07155009
0.10475311 0.01855563 -0.20992345 -0.042712037 -0.25717536 0.0035607268 0.020700375 -0.08621815
0.083182454 0.004664941 0.09840828 -0.043570194 -0.17562698 -0.049416404 -0.011802391 0.2295772
0.12227387 -0.09252413 -0.12881035 -0.17368649 -0.008859833 -0.09041284 -0.12552123 -0.104317695
0.048697833 0.038353104 -0.111269385 -0.089384586 0.1015654 -0.028411536 -0.030375307 -0.23540108
-0.20773534 -0.020289123 -0.3778564 0.121679634 0.29179022 -0.10212445 -0.04534921 -0.0754664
-0.057106573 0.08647592 -0.21212322 0.02227712 -0.33575892 -0.0075178132 -0.16465881 0.043660242
0.098243795 -0.0749197 -0.042104796 -0.040850367 -0.20474027 -0.01878011 0.18207695 -0.03196607
-0.09208163 0.01612448 0.36667863 -0.34050936 -0.13560784 -0.100347 -0.3404381 -0.051878348
0.03210159 0.05443475 0.030870005 -0.10517244 -0.25278458 -0.046375763 0.2681076 0.0033169528
0.11286444 -0.06511187 -0.10174179 0.081503004 0.39369318 -0.068598025 -0.088432156 -0.074354164
0.07084813 0.083559245 -0.019649217 -0.104858115 -0.039553672 -0.110804066 -0.27427453 -0.06091779
0.1179374 0.021755366 -0.18002853 -0.08051387 0.1886717 -0.0374721 0.06046433 -0.36298186
-0.2429803 0.0629579 -0.24739788 -0.23476712 -0.08287525 -0.092062205 -0.6038777 -0.23260508
-0.011640728 -0.08472822 0.14323284 0.092995 -0.1738009 0.06763052 -0.13519777 0.2769108
-0.090465985 -0.069372304 0.048177112 -0.0012564935 -0.1854097 0.037590493 -0.067282856 -0.10255958

linear_stack.2.bias f4 [64]
00000000: eb40 b63e e8e0 c2be fd17 923e 92c9 0c3f
00000010: 05dc 003f 6eb1 ccbe d626 20be ba08 303f
00000020: 74f8 9bbd e044 9b3d 949e 19bd 331c 1ebf
00000030: 560d 48be 69a1 d8bb 1bff 0ebe 3b96 0dbe
00000040: e4ab 99be 1988 3b3c 058a 913f adca 6c3d
00000050: a277 83be 7938 9c3b 1f2f 59be 58d4 a83e
00000060: 116d cfbd 4b4c 34bf 7e02 09be 0553 be3d
00000070: 7bb4 65be 8510 d4bd 4f50 3cbe f2e0 1cbe
00000080: ee1c 80be b456 1abe d3e0 2abe 7894 ce3e
00000090: cc3c 88bd fb68 05bc 9401 843d 53f4 e53f
000000a0: 6c4b 0cbe d28d 5cbd dc0b 01bf 8abb 52be
000000b0: 9067 953e 5fc9 24be d6fa 20be 10f4 803e
000000c0: 2dcc fabd 8157 10be d01e 0b3f aa1d c8be
000000d0: f533 543f ec87 94be cd1e be3e 0631 98bc
000000e0: ce50 82be a29a 0e3e 4137 cd3c 9de8 4bbe
000000f0: 6f43 8bbe 26fb ef3e 16a9 16be 2b12 2dbe
0.35596403 -0.38062215 0.28533927 0.5499507 0.50335723 -0.39979118 -0.15639815 0.68763316
-0.07615748 0.07581496 -0.037504748 -0.6176178 -0.19536337 -0.0066110385 -0.13964503 -0.1382684
-0.30013955 0.011446022 1.1370245 0.057810474 -0.2567721 0.0047674743 -0.21209382 0.32974505
-0.10128225 -0.70428914 -0.13379857 0.092931785 -0.22432129 -0.10354713 -0.1839001 -0.15320185
-0.25022072 -0.15072137 -0.16687326 0.40347648 -0.06652221 -0.008142705 0.064456135 1.7965187
-0.13700646 -0.053846188 -0.5040872 -0.20579353 0.29180574 -0.16092442 -0.15720686 0.25186205
-0.12245975 -0.1409588 0.5434389 -0.39085132 0.8289178 -0.2900995 0.37132874 -0.018578064
-0.25452274 0.13926175 0.025050761 -0.19912954 -0.27199885 0.468713 -0.14712939 -0.16901462

linear_stack.4.weight f4 [10, 64]
00000000: c6e7 b7bd 8cf3 ffbd 563f 213e 0bf4 c9bd
00000010: 55ae 06be d6d4 5e3d d4b5 7fbe 0196 ddbc
00000020: d8b9 c13e e400 c73d fc65 a8bd a701 b73e
00000030: cce6 053e baf1 b83e 915c aa3e ab15 40be
00000040: 33a7 9cbe 6a3e 20be a07b 45bc ee41 09be
00000050: b24b 783c 5973 a53e c7d2 20be f596 00be
00000060: 7125 da3d 4515 c8be 9f5f c0bd d31c 80bc
00000070: 990e 4a3e c1e4 843d bf3f 9abe 954e 653e
00000080: c7c5 bc3e d339 80be 45dc a3bd ad2e 0d3e
00000090: e735 88bc 7098 08be c32b 3e3e 833c 8a3e
000000a0: ba0a 353d d93a 1c3e a9b3 473d e46b 053e
000000b0: d36e a8be 9a58 a23e 9246 8ebe edc2 28be
000000c0: 9646 2e3e eae6 1f3b 1504 3b3e 6249 38be
000000d0: 3e36 e3bd e802 b8bd 0a72 603d 953a af3d
000000e0: 227a 3fbe 5ef8 91be cab1 9abd b200 533e
000000f0: e94d 0e3c aba7 87bb 01df 65be 6f9b c83c
00000100: 582a 043e 20ab cf3e c6de 7dbe f4a6 28be
00000110: 7cc2 1cbd 6202 0e3e 90e4 ec3d f72e 5e3e
00000120: bbdd 19be 002b a3be 86f0 9cbe 00c1 23be
00000130: cffc c93e 5fc0 97bd 3d2f 60be e2f6 28be
00000140: 422a 123e 3fd0 a63d 36c5 393d b846 af3e
00000150: c8ce cc3e a0ea 02be 0121 2ebe 945b abbd
00000160: 1987 e73d 7942 d93e 401e 8b3d a21f cdbe
00000170: a3b2 5fbe 6358 543d 82ac 943e 3a91 933b
00000180: 51ca 9ebe fc2a 303e 28da 4ebe 216e e8bd
00000190: 0b20 24be f686 f2bd 4e65 4ebe b034 4b3d
000001a0: e867 50bd 1a9a 16be bf19 10be e39b 8fbd
000001b0: c727 8dbe 21b0 23be 9400 973e fd0c 86be
000001c0: f887 7ebe 75f4 bc3e 2b9f 72be f648 1abe
000001d0: 421e 5f3b d413 15be fdd7 6ebe 357b b4be
000001e0: 8fd8 f43c cb50 06be b5d3 013f f5ff 93be
000001f0: 1b11 2abe f655 89be e077 e4bd 3299 c63d
00000200: a405 3f3e d4f8 b93e c554 853e 9c21 a1be
00000210: dedc 073e 528b 53be 9ea7 60be 7c17 52be
00000220: 3c22 18be ce50 31be 5235 d63d 0642 e9bc
00000230: 1268 18be eb56 e9bd 77b8 b13d 9dba 323d
00000240: 7ec1 3bbd 21fa 19be 5466 15be 83f2 953e
00000250: fd32 853e 9f41 313e c4c0 363d 3e52 ed3c
00000260: e996 203b 2734 b13d 2bed 93be 01af c33d
00000270: d05b 01be 68a4 693e 3526 eb3e b5b1 a13e
00000280: a21f 893e f234 9cbe 55ca 9a3e fa88 5c3e
00000290: f335 86be 9b5b 8b3e c7e8 21be 3309 913e
000002a0: a09e 13be 816b 763e 6100 71bd 56e3 cd3d
000002b0: f840 c5be 6423 1e3e ed19 01be 4113 45be
000002c0: 6be3 cabc bf8c 92bd 4984 67bd 5fa3 263e
000002d0: db39 91be cb74 6bbe 6b87 423d 6528 26be
000002e0: 903d 60be 0ddb 9a3d e7e9 1fbe a563 c0bd
000002f0: d9ad ce3e 8772 97bd aa87 723e a2b9 ad3e
00000300: 4d86 a23e 38f4 903e 9da1 733d 3a53 a73e
00000310: 641b 99bc 9fef 1dbe 7609 863c 40ab 8abe
00000320: be01 84bb 65ad 92be e98e c53e e124 25be
00000330: d612 2dbe 948a d63d 2baa 87bd 1edd 5f3e
00000340: b352 d53e eafe 2d3e acc0 01be 970d b1be
00000350: d9db 6cbd 8d76 53bd a167 e5bd db67 f73b
00000360: ed16 d93d 736f cf3d 155e b13e 86db 6a3d
00000370: 709d 4fbe 3892 3f3e b7a1 a23e 9dfe c6bc
00000380: 0a7c 003e b273 093e c1c8 8a3c 1a7d f63d
00000390: 4fbc 84be f8e5 b63d 6b86 86be 13e6 be3d
000003a0: 8be5 063e c211 b9bd cd8d 0f3e ab71 53be
000003b0: f7a8 bdbd 1f9e 143e 0fe4 243e 408d e63e
000003c0: af8d d03d 32e5 85be e0ba 373d 93e2 4c3d
000003d0: 4f36 c93d c4d3 b63e dc59 fbbd 7b37 0bbe
000003e0: 29a8 bd3e 589a d93b 0f90 d8be eab4 b13d
000003f0: 98f7 893e 16f2 94bd 5f34 3fbe a380 bc3d
-0.08979754 -0.12497625 0.15746817 -0.098610006 -0.1315244 0.054402195 -0.24971706 -0.027049066
0.378371 0.09716967 -0.08222577 0.35743448 0.13076323 0.36121923 0.33273748 -0.18758266
-0.30596313 -0.15648809 -0.0120534 -0.13404056 0.015154766 0.32314566 -0.15705405 -0.12557586
0.10651673 -0.39078727 -0.09393238 -0.015638744 0.19732131 0.06488944 -0.3012676 0.22393258
0.36869642 -0.25044116 -0.080009975 0.13787337 -0.016627265 -0.133394 0.18571381 0.26999292
0.044199683 0.15256824 0.04875532 0.13029438 -0.32897052 0.31708223 -0.27788216 -0.16480608
0.17019114 0.002439911 0.18263276 -0.17996743 -0.1109433 -0.08984929 0.054796256 0.085560955
-0.18698934 -0.28509802 -0.07553442 0.20605734 0.008685567 -0.0041398606 -0.2244835 0.024488179
0.12906778 0.40560246 -0.24792013 -0.16469938 -0.038271412 0.13868096 0.11567032 0.21697603
-0.1502599 -0.31868744 -0.30652255 -0.15991592 0.3945069 -0.07409739 -0.2189302 -0.16500428
0.14273933 0.081451885 0.04535409 0.34233642 0.40001512 -0.12784815 -0.17004777 -0.083670765
0.11305065 0.42433527 0.06792879 -0.40063196 -0.21845488 0.051842105 0.29037863 0.0045033963
-0.3101373 0.17203897 -0.20200408 -0.113491304 -0.16027848 -0.11842148 -0.20155832 0.049610794
-0.050880343 -0.14707223 -0.14072321 -0.07012155 -0.2756941 -0.15985157 0.2949263 -0.26181784
-0.24856555 0.36905256 -0.2369353 -0.15066895 0.0034045135 -0.14558345 -0.2332458 -0.3525025
0.02988842 -0.13116758 0.50713664 -0.28906217 -0.16608088 -0.26823395 -0.11155677 0.096971884
0.18654495 0.36322653 0.26041237 -0.31470954 0.13267848 -0.20658615 -0.21938941 -0.20516771
-0.1485681 -0.17315981 0.10459389 -0.028473865 -0.1488345 -0.113935314 0.08677762 0.043635
-0.045838825 -0.15036823 -0.14589816 0.29286584 0.26015463 0.17310189 0.04461743 0.02896988
0.0024504012 0.086525254 -0.28891882 0.09554864 -0.1263268 0.22816622 0.45927587 0.31580892
0.26781946 -0.30509144 0.30232492 0.21536627 -0.26213035 0.27218327 -0.15811454 0.2832733
-0.1441598 0.24064447 -0.058838252 0.100531265 -0.3852613 0.15443188 -0.12607546 -0.19245626
-0.024766644 -0.071557514 -0.05652264 0.16273259 -0.28364453 -0.22993772 0.047492426 -0.16226347
-0.21898484 0.07561312 -0.1561657 -0.09394006 0.4036701 -0.07394891 0.23684564 0.3393069
0.31743088 0.28311324 0.0594803 0.32680684 -0.018689819 -0.1542344 0.016361933 -0.27083778
-0.004028528 -0.28647915 0.38585594 -0.1612735 -0.16901717 0.104756504 -0.06624254 0.21861693
0.41664657 0.16991773 -0.12671155 -0.3458068 -0.05782685 -0.05162673 -0.11201406 0.0075502223
0.10600076 0.10128679 0.3464209 0.05733826 -0.20274901 0.18708122 0.31764004 -0.024291331
0.12547317 0.1342304 0.01694143 0.1203558 -0.25924918 0.08930582 -0.26274428 0.09321227
0.13173501 -0.0903659 0.14018936 -0.2064883 -0.09260743 0.14513443 0.16102622 0.4502964
0.10183274 -0.26151425 0.044855952 0.050020766 0.09824812 0.3570844 -0.12272999 -0.13595383
0.3704236 0.0066407137 -0.42297408 0.08677085 0.26946712 -0.07272737 -0.18672322 0.09204223

linear_stack.4.bias f4 [10]
00000000: 181b 2abf ba96 9dbf 9b34 133e 36d1 6cbe
00000010: c8b1 5f3e 7400 233e 3d26 1abd 5232 86bf
00000020: 6d29 f43f b87d 073f
-0.6644759 -1.2311623 0.14375536 -0.23126683 0.21845162 0.15918142 -0.037634123 -1.0484107
1.9075142 0.52926207
