web-service/app/ml-models/digit_conv5.pt (torch, 212855 bytes, 10 tensors)

conv_stack.1.weight f4 [32, 1, 3, 3]
-0.20294462 -0.10842976 0.68516564 -0.18650542 -0.034705244 0.13638996 -0.35163042 -0.39420855
-0.44966972 0.1492871 0.10264908 -0.115634814 -0.39419755 -0.3384174 -0.27985048 -0.17599268
0.252651 0.018702433 -0.40539685 -0.3331458 -0.25754586 -0.060771253 -0.0033888381 -0.08168192
0.20408107 0.18330088 0.435491 0.0611994 -0.44527355 -0.18236125 0.40830165 0.0690028
-0.03521689 -0.15466417 0.25028086 0.04066048 0.076746546 -0.054093998 0.050604 -0.39630115
0.06112432 0.29985675 -0.0070974454 0.19679047 -0.14555512 -0.06424119 -0.10417014 -0.26333708
0.06228472 -0.31129915 -0.035767265 -0.21782516 -0.19390582 -0.25944072 -0.0028841365 -0.20489606
-0.40681952 0.009995079 -0.1566196 -0.09257156 0.3726376 -0.030292673 -0.06463999 0.020656552
0.14734457 -0.18044214 -0.15647368 0.23843123 -0.033916455 0.15688702 0.1928588 -0.18799566
0.33325493 -0.2953932 -0.2429696 0.2743004 -0.15575773 -0.203707 -0.1589812 -0.28476733
-0.2966194 0.14476061 0.35302517 -0.012348262 -0.22219665 0.08657212 0.18839502 -0.25065643
-0.31738856 -0.3422899 -0.03108261 -0.47365314 0.15667903 0.12213532 -0.17436187 -0.10251645
0.18677661 0.35828117 -0.018426616 -0.052410886 0.17651172 0.068419054 -0.14464286 -0.15087731
0.09852112 0.13991445 -0.18401173 -0.14546563 -0.15603393 -0.15887806 -0.24383527 -0.07212085
-0.41869488 0.12174436 -0.29798067 -0.1424388 0.50744945 0.097561315 -0.49282894 -0.16686639
-0.0120653575 0.38666376 0.36150745 -0.023732577 -0.29159275 -0.30481187 0.15512587 0.031236779
-0.6724366 0.22502936 -0.15224607 -0.0619395 0.097911984 0.353244 0.25096053 -0.12616903
-0.09441565 0.15404835 -0.2929296 0.014180527 0.043702614 -0.18425679 0.046200372 0.24115974
0.27089092 -0.15092458 -0.009639937 -0.011177218 0.27253264 -0.42975107 0.18409617 0.02395366
-0.09804169 -0.26865807 -0.03885741 -0.4316408 0.16600667 0.1979019 -0.26287997 0.11845077
0.083441995 -0.071411304 0.13138902 0.319849 -0.61430883 -0.04632334 0.26558858 0.06141355
-0.39928123 0.20967583 0.039264705 0.22170946 0.14949027 0.29201147 -0.053491216 0.11018419
-0.20624208 -0.3440865 -0.33112597 0.2389313 0.19343254 0.2762466 0.13879631 0.08781816
-0.043278333 -0.10489813 -0.37950844 -0.1252052 -0.398936 -0.07130375 -0.25253883 -0.26821795
-0.20196036 -0.2624137 0.34330702 -0.074377276 0.1612394 0.102850795 0.18173076 0.17266442
0.04869856 -0.07921642 0.16137318 0.2430021 -0.2560941 -0.14207049 0.1528419 -0.43618852
-0.07675527 0.27438062 -0.2177693 0.24398816 -0.012086092 0.07936361 0.14864641 0.1622775
-0.10647643 0.26530042 0.3092692 0.22931486 0.1915255 -0.0431388 0.11948438 -0.22134645
-0.4848562 -0.3968321 -0.23621826 -0.34900826 -0.21524636 0.36611837 0.40018147 0.035251245
0.07272728 -0.29928333 0.38560545 0.0020420996 0.07051993 0.017924426 -0.14808269 -0.01992307
-0.05585042 -0.28518754 -0.049725514 -0.4175135 -0.24307147 0.25258872 -0.22100563 -0.14282185
0.29454377 -0.41602778 -0.2077502 0.29565823 -0.3340606 -0.32320282 0.11763449 -0.12420151
00000000: b7d0 4fbe 6c10 debd 0467 2f3f 47fb 3ebe
00000010: 1627 0ebd cfa9 0b3e e708 b4be b4d5 c9be
00000020: 1c3b e6be b8de 183e ae39 d23d f2d1 ecbd
00000030: 43d4 c9be 0c45 adbe 9048 8fbe 6d37 34be
00000040: 795b 813e d835 993c 2d90 cfbe 1692 aabe
00000050: 0ddd 83be 47eb 78bd 4517 5ebb da48 a7bd
00000060: a1fa 503e 3ab3 3b3e adf8 de3e 39ac 7a3d
00000070: e5fa e3be e8bc 3abe ea0c d13e 5751 8d3d
00000080: 963f 10bd 4960 1ebe d024 803e 9a8b 263d
00000090: 4b2d 9d3d ab91 5dbd 2446 4f3d fce7 cabe
000000a0: 7f5d 7a3d d386 993e b091 e8bb 7183 493e
000000b0: 670c 15be e390 83bd 2857 d5bd 1ed4 86be
000000c0: 431e 7f3d 9a62 9fbe b280 12bd 8f0d 5fbe
000000d0: 3f8f 46be 6ad5 84be c803 3dbb 46d0 51be
000000e0: a64a d0be 66c2 233c e360 20be 2896 bdbd
000000f0: 5bca be3e 5728 f8bc f961 84bd ee37 a93c
00000100: 7fe1 163e d3c5 38be a33a 20be 5127 743e
00000110: fbeb 0abd fea6 203e c77c 453e ef81 40be
00000120: 64a0 aa3e c73d 97be 06cd 78be 1a71 8c3e
00000130: f47e 1fbe 9198 50be f8cb 22be 06cd 91be
00000140: 7fde 97be 203c 143e b7bf b43e 5d50 4abc
00000150: 8587 63be b94c b13d a0ea 403e 0a56 80be
00000160: c180 a2be 9f40 afbe f5a0 febc aa82 f2be
00000170: 7870 203e 1522 fa3d eb8b 32be 25f4 d1bd
00000180: 5e42 3f3e a170 b73e 6af3 96bc ccac 56bd
00000190: 7dbf 343e 4a1f 8c3d 421d 14be 957f 1abe
000001a0: 71c5 c93d bc45 0f3e 926d 3cbe f1f4 14be
000001b0: 5cc7 1fbe eeb0 22be f4af 79be 19b4 93bd
000001c0: 2d5f d6be 1b55 f93d ec90 98be 7adb 11be
000001d0: 35e8 013f 3ace c73d 1354 fcbe 06df 2abe
000001e0: c7ad 45bc cbf8 c53e 8117 b93e d26a c2bc
000001f0: a54b 95be 4d10 9cbe 51d9 1e3e 46e4 ff3c
00000200: ce24 2cbf 196e 663e 65e6 1bbe 46b4 7dbd
00000210: 1486 c83d 66dc b43e e67d 803e 7432 01be
00000220: fe5c c1bd dabe 1d3e defa 95be 7155 683c
00000230: 8301 333d d0ad 3cbe 9a3c 3d3d 94f2 763e
00000240: 37b2 8a3e f98b 1abe d4f0 1dbc a620 37bc
00000250: 6689 8b3e 5508 dcbe b583 3c3e 773a c43c
00000260: 15ca c8bd 8d8d 89be f328 1fbd 0600 ddbe
00000270: a7fd 293e cca6 4a3e 3498 86be 5196 f23d
00000280: a3e3 aa3d 1740 92bd d88a 063e 40c3 a33e
00000290: 5843 1dbf 8bbd 3dbd 3afb 873e c68c 7b3d
000002a0: 976e ccbe 43b5 563e 07d4 203d ce07 633e
000002b0: fa13 193e 8782 953e 9b19 5bbd 40a8 e13d
000002c0: 2031 53be 1b2c b0be 5889 a9be 68aa 743e
000002d0: 2e13 463e 3270 8d3e 9f20 0e3e 02da b33d
000002e0: 9f44 31bd d5d4 d6bd ee4e c2be cb35 00be
000002f0: 5741 ccbe b307 92bd c54c 81be dd53 89be
00000300: b2ce 4ebe 175b 86be f0c5 af3e 1d53 98bd
00000310: f11b 253e 70a3 d23d a117 3a3e f1ce 303e
00000320: 2478 473d 383c a2bd 033f 253e 8bd5 783e
00000330: c41e 83be ed7a 11be 9682 1c3e 1a54 dfbe
00000340: de31 9dbd 9e7b 8c3e eafe 5ebe 08d8 793e
00000350: be04 46bc 6389 a23d c436 183e 132c 263e
00000360: 5110 dabd 75d5 873e 8858 9e3e 84d1 6a3e
00000370: 431f 443e 4fb2 30bd 3ab4 f43d a5a8 62be
00000380: 123f f8be 942d cbbe 33e3 71be 36b1 b2be
00000390: 8b69 5cbe de73 bb3e 96e4 cc3e 9c63 103d
000003a0: 0af2 943d aa3b 99be 146e c53e bfd4 053b
000003b0: c16c 903d 3fd6 923c fda2 17be b535 a3bc
000003c0: 69c3 64bd 1a04 92be fbac 4bbd 54c4 d5be
000003d0: bae7 78be 4f53 813e 4d4f 62be e43f 12be
000003e0: 71ce 963e 9801 d5be 78bc 54be 8460 973e
000003f0: fe09 abbe d77a a5be 5aea f03d 5c5d febd

conv_stack.1.bias f4 [32]
-0.38503963 -0.09456197 -0.23227143 -0.10338432 -0.18775573 -0.15451837 -0.24193668 -0.1793837
-0.24966162 -0.18715361 -0.063365124 -0.08262982 -0.3633458 -0.19974498 -0.5096642 -0.20293227
-0.104022905 -0.19077103 -0.44881353 -0.4008591 -0.1574192 -0.2259141 -0.5676047 -0.37808597
-0.5652554 -0.31486824 -0.070762485 -0.4834122 -0.1397564 -0.20127873 -0.5184803 -0.22930881
00000000: ea23 c5be b5a9 c1bd 90d8 6dbe 29bb d3bd
00000010: 0a43 40be 103a 1ebe 40be 77be 5cb0 37be
00000020: 4ca7 7fbe 32a5 3fbe 93c5 81bd d339 a9bd
00000030: 7608 babe f389 4cbe 5a79 02bf 7acd 4fbe
00000040: f609 d5bd 7b59 43be e3ca e5be 673d cdbe
00000050: 8032 21be 0756 67be 8b4e 11bf 7c94 c1be
00000060: 94b4 10bf 6936 a1be eceb 90bd ce81 f7be
00000070: 4d1c 0fbe 031c 4ebe 20bb 04bf eecf 6abe

conv_stack.4.weight f4 [32, 32, 3, 3]
0.29579312 0.06656544 0.017201182 0.22916311 0.18577951 0.10452083 -0.044258386 0.07106004
-0.15700416 -0.0359851 -0.05121628 0.112427235 0.003566573 0.017113755 0.04977133 0.008277295
-0.035169136 0.048385188 -0.20392716 -0.14495537 0.03785573 0.06091885 0.04109195 0.122770704
0.13318764 0.123566635 0.16613895 -0.10932558 0.0044283294 -0.048128877 0.06440985 0.02268425
-0.10109662 0.049960192 0.00484303 -0.0025603813 0.03469914 0.12799358 0.12707102 -0.061449397
-0.0381445 0.004327779 -0.015575995 -0.11836935 -0.060770422 -0.034390114 -0.043737013 -0.108868964
0.05858098 -0.03977907 -0.0466672 -0.011960198 0.044617806 0.08180879 -0.103343256 -0.030874051
-0.09890996 -0.0017879147 -0.03948053 -0.027061665 0.10292891 -0.020975208 0.0070629665 -0.10362099
0.007550588 -0.04588729 -0.02935443 -0.15891074 -0.07891963 0.11544032 -0.02624981 -0.087253086
-0.064451255 -0.029162098 0.041367877 -0.07170717 -0.15748036 -0.06992996 0.01807644 -0.041383453
-0.07939393 0.05796281 -0.0054043867 -0.0002483184 -0.06774879 0.24854846 0.13275768 -0.017582396
-0.034823176 -0.026255593 0.020372432 -0.062115535 -0.059970323 0.050039332 0.07363307 0.013663478
0.08625409 -0.058386102 0.00843607 0.04855978 -0.041261908 0.081124656 -0.057557136 0.08777073
0.03303971 -0.0672399 -0.07894037 -0.049361113 0.05427196 0.01918308 0.019324338 -0.15789466
-0.1478853 -0.0704624 0.08111523 0.04648671 0.0047020623 -0.020981614 0.1067323 0.040289145
-0.0046138493 0.018960224 -0.024265213 0.023830451 -0.020092934 -0.01353538 -0.13516054 0.071634404
-0.045071054 0.07531397 0.07598943 -0.053931993 0.04056182 0.022074511 0.073688395 0.049682993
0.08849158 0.05899321 -0.06187255 -0.036609244 -0.08344595 -0.03288956 -0.10667628 -0.017261317
-0.14221811 0.016882485 -0.081520736 -0.10469194 -0.106023125 -0.079235956 -0.058563717 -0.10730169
-0.11545284 0.0054437798 -0.0035914455 -0.05916167 0.0714561 0.035282835 -0.115163006 0.104286954
0.01804248 0.014030289 -0.045913346 0.077478744 -0.14889798 -0.13606963 -0.04616543 -0.13516687
-0.078058116 0.011015391 -0.03381468 -0.058124322 0.024137868 0.04983228 -0.06416845 0.06789418
0.12883554 -0.02184813 -0.02117745 -0.0030529022 -0.091763824 0.05081619 0.14457792 -0.110922754
0.10458655 0.21717757 -0.024517002 -0.111561015 -0.06074086 -0.021945618 0.0016969796 0.091639794
-0.07288705 -0.13652024 0.018844606 0.02540061 0.07907379 0.040665425 0.031488236 0.14949739
-0.004832089 -0.18556373 0.14499281 0.06585999 -0.13585047 -0.08284488 -0.13372189 0.022690866
0.06813958 0.08227443 -0.0875788 -0.14760639 -0.04801498 -0.05930541 -0.1257828 0.036653727
-0.20946768 -0.008542234 0.17967235 -0.2584737 -0.041442107 0.1625298 -0.05243991 -0.15114488
-0.022087503 -0.061273612 -0.069706604 0.04198842 -0.02137858 -0.05426898 0.034113884 0.059591442
0.09030577 -0.03919938 -0.21572869 -0.015003103 0.19922167 -0.23510605 -0.041938614 0.023986934
-0.08523868 -0.07179168 -0.08847447 0.118945 0.14132693 0.039148822 -0.010305622 -0.05585783
-0.26346898 0.014277375 -0.0821297 -0.08865444 0.14216979 -0.0046508545 -0.1401703 0.11243728
00000000: 3272 973e 7653 883d 7ee9 8c3c bca9 6a3e
00000010: fc3c 3e3e 040f d63d 4848 35bd ed87 913d
00000020: b3c5 20be 1d65 13bd 29c8 51bd 4040 e63d
00000030: 2abd 693b 2532 8c3c 06dd 4b3d 7e9d 073c
00000040: 830d 10bd 8c2f 463d 48d2 50be 2e6f 14be
00000050: 9c0e 1b3d 0b86 793d 0850 283d 356f fb3d
00000060: 5762 083e 8110 fd3d 5420 2a3e 17e6 dfbd
00000070: 851b 913b c922 45bd 50e9 833d 52d4 b93c
00000080: bf0b cfbd 0fa3 4c3d 48b2 9e3b 12cc 27bb
00000090: af20 0e3d c010 033e e81e 023e 5db2 7bbd
000000a0: 683d 1cbd 0bd0 8d3b 7532 7fbc a16b f2bd
000000b0: 68ea 78bd a6dc 0cbd 9525 33bd b1f6 debd
000000c0: 9cf2 6f3d 61ef 22bd 1b26 3fbd b5f4 43bc
000000d0: 29c1 363d 5e8b a73d a1a5 d3bd 94eb fcbc
000000e0: 4e91 cabd 7658 eaba 56b6 21bd 6db0 ddbc
000000f0: 64cc d23d 33d4 abbc 7570 e73b 3e37 d4bd
00000100: ec6a f73b 50f4 3bbd b478 f0bc 7fb9 22be
00000110: 9da0 a1bd f96b ec3d d709 d7bc bfb1 b2bd
00000120: 05ff 83bd 5ae5 eebc 5d71 293d 35db 92bd
00000130: 8842 21be 7037 8fbd 0b15 943c b281 29bd
00000140: 4999 a2bd 696a 6d3d 4817 b1bb bb30 82b9
00000150: e1bf 8abd 7d83 7e3e a1f1 073e f508 90bc
00000160: bfa2 0ebd f815 d7bc 16e4 a63c dc6c 7ebd
00000170: 71a3 75bd 0bf6 4c3d efcc 963d c8dc 5f3c
00000180: fca5 b03d 4426 6fbd 7137 0a3c 9fe6 463d
00000190: 3f02 29bd af24 a63d 08c1 6bbd 24c1 b33d
000001a0: a654 073d 13b5 89bd 7dab a1bd e12e 4abd
000001b0: 464c 5e3d d625 9d3c 134e 9e3c 23af 21be
000001c0: 3e6f 17be 974e 90bd be1f a63d d968 3e3d
000001d0: c213 9a3b a2e1 abbc 7796 da3d 3b06 253d
000001e0: c62f 97bb 7952 9b3c d7c7 c6bc 1438 c33c
000001f0: f099 a4bc 80c3 5dbc 8667 0abe 0fb5 923d
00000200: 6d9c 38bd 363e 9a3d 59a0 9b3d cbe7 5cbd
00000210: 2724 263d 9bd5 b43c f1e9 963d 6580 4b3d
00000220: 133b b53d dda2 713d 126e 7dbd 93f3 15bd
00000230: b6e5 aabd 34b7 06bd 1879 dabd 9b67 8dbc
00000240: a0a1 11be 234d 8a3c 58f4 a6bd ba68 d6bd
00000250: a722 d9bd 7646 a2bd 82e0 6fbd fdc0 dbbd
00000260: 8a72 ecbd bc61 b23b 755e 6bbb 8253 72bd
00000270: 9357 923d bc84 103d 95da ebbd 6694 d53d
00000280: d3cd 933c 4cdf 653c a20f 3cbd 2dad 9e3d
00000290: b678 18be d655 0bbe f617 3dbd 2f69 0abe
000002a0: efdc 9fbd e679 343c 4381 0abd c513 6ebd
000002b0: c7bc c53c ef1c 4c3d c06a 83bd 1b0c 8b3d
000002c0: 77ed 033e d9fa b2bc 557c adbc 3313 48bb
000002d0: acee bbbd a324 503d 3c0c 143e 782b e3bd
000002e0: 7931 d63d cc63 5e3e e1d7 c8bc 1a7a e4bd
000002f0: 68cb 78bd 4cc7 b3bc 306d de3a a5ad bb3d
00000300: ce45 95bd f6cb 0bbe 0160 9a3c f114 d03c
00000310: 70f1 a13d ca90 263d cff9 003d d815 193e
00000320: 8056 9ebb 6b04 3ebe ff78 143e 9ae1 863d
00000330: 631c 0bbe 94aa a9bd 64ee 08be 32e2 b93c
00000340: c48c 8b3d 7f7f a83d 845c b3bd 2126 17be
00000350: 5bab 44bd 3bea 72bd 35cd 00be 3822 163d
00000360: b27e 56be baf4 0bbc 07fc 373e aa56 84be
00000370: 33bf 29bd 366e 263e 3bcb 56bd b9c5 1abe
00000380: daf0 b4bc 0afa 7abd 56c2 8ebd 0dfc 2b3d
00000390: 2222 afbc 2649 5ebd 00bb 0b3d 2816 743d
000003a0: 3bf2 b83d 878f 20bd fbe7 5cbe 93cf 75bc
000003b0: c400 4c3e a4bf 70be d3c7 2bbd 3f80 c43c
000003c0: 9e91 aebd 8407 93bd 1a32 b5bd 7099 f33d
000003d0: 02b8 103e 845a 203d e9d8 28bc 2ecb 64bd
000003e0: 68e5 86be a7eb 693c 9e33 a8bd 7690 b5bd
000003f0: f594 113e 3266 98bb ce88 0fbe 8445 e63d

conv_stack.4.bias f4 [32]
-0.11231112 -0.028034737 0.013880294 0.03301137 -0.07781281 0.101866364 -0.041027907 -0.039749913
-0.051684886 -0.116395235 -0.032800395 -0.013263146 -0.09927715 0.08091995 -0.037670407 0.015685724
-0.067569256 -0.20267749 0.070027664 0.02567638 -0.08163265 0.08912556 -0.05363955 0.11512018
-0.109315604 -0.27901882 -0.070358075 0.049229354 0.07779911 0.045436256 -0.052838564 -0.20417029
00000000: 5f03 e6bd 1ba9 e5bc 2c6a 633c ee36 073d
00000010: 535c 9fbd 509f d03d e10c 28bd ced0 22bd
00000020: 88b3 53bd a060 eebd b559 06bd ab4d 59bc
00000030: d251 cbbd 5cb9 a53d 494c 1abd 597f 803c
00000040: c061 8abd b08a 4fbe aa6a 8f3d 4657 d23c
00000050: 052f a7bd 7687 b63d 25b5 5bbd 21c4 eb3d
00000060: dce0 dfbd 8edb 8ebe e517 90bd b8a4 493d
00000070: 2455 9f3d 5e1b 3a3d 406d 58bd 0412 51be

conv_stack.7.weight f4 [32, 32, 3, 3]
-0.17355108 0.13617581 0.032485187 0.025211643 0.3690018 0.18140443 -0.23582442 -0.005913905
0.12012829 0.05702816 0.006723193 -0.011101321 -0.013842784 -0.08802151 -0.039196573 -0.07797871
-0.0061156326 -0.021824824 -0.04518914 0.09092231 -0.054391522 0.03690339 0.033012882 0.0068120365
-0.06579935 0.1353179 0.16527905 0.11346244 0.10672957 -0.068246044 -0.066739455 -0.2645135
-0.055742573 0.008302061 -0.070904486 -0.20896949 0.14885227 -0.1435699 0.124359526 -0.000117820826
-0.18181758 -0.07064459 -0.015365549 0.0726228 -0.16221958 -0.0490178 0.099502295 0.07612615
-0.2157193 -0.06569384 -0.2833629 0.0012782665 0.080463454 0.18028542 -0.11026057 0.16260822
0.20699118 0.052512858 -0.09061916 -0.16020456 -0.077605076 -0.13911848 -0.06578994 -0.02984082
0.14197879 0.0040481486 -0.047203008 -0.08823331 0.013153236 0.029781261 -0.097374275 0.027660193
0.120553 0.18011512 -0.02199473 -0.07071031 0.056278594 0.018132 -0.24180911 -0.09787408
0.23193622 0.07261738 0.20681274 0.024713153 -0.035872776 0.11897666 0.18155637 -0.047739696
-0.0035998167 0.029929027 -0.012405891 -0.099309385 -0.087011814 -0.083181694 -0.1829483 -0.12503095
0.026603136 -0.10274679 -0.06747357 0.079336606 0.0507863 0.014846314 0.03867436 -0.030748006
0.032208033 0.03777794 -0.033741184 -0.012328289 0.036733855 -0.04563793 0.053457238 0.05560822
-0.06322802 -0.07124012 0.110577196 0.066148326 -0.03606158 -0.03518879 0.11729566 0.026870936
-0.09163684 -0.32007357 -0.17388079 0.2525868 0.004455452 -0.044943295 -0.040521562 -0.020363461
-0.038699515 -0.07347856 -0.03409107 -0.0515965 0.029439453 -0.026688097 -0.060756173 -0.04666675
0.18305694 0.033707906 -0.07754618 -0.07466773 -0.026794836 -0.064755715 -0.07705121 -0.040892832
-0.0469398 -0.004980327 -0.057317663 -0.033565387 0.024044693 0.035265177 0.032967493 0.020569323
-0.046400186 -0.10756457 0.05290182 0.025451323 0.089921616 0.20295683 0.090692036 -0.061412558
0.1582698 0.142027 -0.056438603 0.11708461 0.042968772 -0.12934265 -0.22679624 -0.22601992
0.02420548 -0.1136732 0.0961793 0.05741031 0.10465375 -0.08054931 -0.06894771 -0.17933512
-0.12394947 0.050875545 -0.006933664 0.0570598 0.007363598 -0.0032369283 0.05021838 -0.031153098
-0.06947384 -0.009380217 -0.01863771 0.032853592 0.023054272 -0.13375425 -0.15126117 0.1431234
0.19028252 0.040832918 0.1152405 0.22774613 -0.06434894 -0.0046510156 -0.04333469 -0.16041696
-0.07624984 0.027555285 0.18700787 0.096303105 0.067012876 0.21604054 0.19881769 0.13862047
0.03983278 -0.1134557 -0.1707294 -0.07456191 -0.22141701 -0.16904381 0.057558615 0.051792547
-0.040318143 0.15350628 -0.059945796 -0.060175315 -0.013088211 -0.024461277 -0.06589869 -0.123602726
-0.09105882 -0.15269941 -0.17515294 0.18494049 -0.017009076 0.057021677 0.29974648 0.08200619
-0.066415735 -0.18926774 0.21308511 -0.088962235 0.13471994 0.08133347 -0.11637376 -0.07098839
-0.0447529 -0.23323525 -0.13198276 -0.057848323 -4.930603e-05 -0.021157566 -0.028923651 -0.03785706
0.047614012 0.021094864 0.04147325 -0.034209996 0.098674044 0.052171744 0.025400143 -0.11507936
00000000: 60b7 31be ac71 0b3e 300f 053d a688 ce3c
00000010: ceed bc3e 15c2 393e f57b 71be 6ec9 c1bb
00000020: d205 f63d 5c96 693d 3b4e dc3b 51e2 35bc
00000030: d8cc 62bc 9f44 b4bd 968c 20bd 4db3 9fbd
00000040: a565 c8bb f9c9 b2bc 3f18 39bd 7a35 ba3d
00000050: a5c9 5ebd 0228 173d 8438 073d 8137 df3b
00000060: cfc1 86bd c790 0a3e e93e 293e ff5e e83d
00000070: 0895 da3d 95c4 8bbd b2ae 88bd 506e 87be
00000080: 5352 64bd 5e05 083c 5f36 91bd 19fc 55be
00000090: bb6c 183e fd03 13be 35b0 fe3d 9316 f7b8
000000a0: 632e 3abe 1cae 90bd c9bf 7bbc 43bb 943d
000000b0: e41c 26be e3c6 48bd dcc7 cb3d 07e8 9b3d
000000c0: 85e5 5cbe 7e8a 86bd f114 91be 828b a73a
000000d0: 06ca a43d be9c 383e 4bd0 e1bd c582 263e
000000e0: 7ff5 533e b917 573d 8a96 b9bd aa0c 24be
000000f0: 69ef 9ebd 1375 0ebe e0bc 86bd bc74 f4bc
00000100: e362 113e 55a6 843b f157 41bd aab3 b4bd
00000110: ac80 573c d5f7 f33c 2a6c c7bd a197 e23c
00000120: 7ee4 f63d 1970 383e 4b2e b4bc 91d0 90bd
00000130: 6284 663d 8f89 943c cf9c 77be 3572 c8bd
00000140: b080 6d3e 6cb8 943d b8c6 533e 3d73 ca3c
00000150: 55ef 12bd 09aa f33d eae9 393e b38a 43bd
00000160: e7ea 6bbb b82d f53c 1442 4bbc b862 cbbd
00000170: 4033 b2bd 2a5b aabd cd56 3bbe 1d08 00be
00000180: d2ee d93c e96c d2bd 952f 8abd 3b7b a23d
00000190: 4c05 503d f43d 733c 0169 1e3d 3ee3 fbbc
000001a0: 92ec 033d 0bbd 1a3d 3234 0abd 98fc 49bc
000001b0: 3d76 163d d7ee 3abd faf5 5a3d 72c5 633d
000001c0: b17d 81bd 57e6 91bd 4c76 e23d c678 873d
000001d0: 4fb5 13bd 1f22 10bd b538 f03d 7020 dc3c
000001e0: 18ac bbbd afe0 a3be ce0d 32be 0f53 813e
000001f0: 0aff 913b 7616 38bd f0f9 25bd 46d1 a6bc
00000200: 6283 1ebd ed7b 96bd 14a3 0bbd da56 53bd
00000210: 022b f13c ffa0 dabc 77db 78bd a225 3fbd
00000220: 4773 3b3e 4d11 0a3d 88d0 9ebd 65eb 98bd
00000230: d880 dbbc a59e 84bd 06cd 9dbd 3e7f 27bd
00000240: f343 40bd 0332 a3bb edc5 6abd dc7b 09bd
00000250: 60f9 c43c 3872 103d ec08 073d ff80 a83c
00000260: 1f0e 3ebd d04a dcbd 94af 583d 4b7f d03c
00000270: d328 b83d ead3 4f3e bfbc b93d bc8b 7bbd
00000280: 7a11 223e 876f 113e 2a2c 67bd 0eca ef3d
00000290: 0600 303d 6672 04be 463d 68be c471 67be
000002a0: 924a c63c 7fcd e8bd a7f9 c43d 1327 6b3d
000002b0: b554 d63d 09f7 a4bd 7534 8dbd a0a3 37be
000002c0: 38d9 fdbd e062 503d ca33 e3bb 89b7 693d
000002d0: 564a f13b a522 54bb cab1 4d3d c834 ffbc
000002e0: 4d48 8ebd 7baf 19bc 1cae 98bc 7d91 063d
000002f0: 50dc bc3c e0f6 08be 35e4 1abe f18e 123e
00000300: 6cd9 423e 6b40 273d 3603 ec3d 4836 693e
00000310: 61c9 83bd 8c67 98bb b77f 31bd 5844 24be
00000320: e028 9cbd 9fbb e13c fe7e 3f3e 903a c53d
00000330: 0c3e 893d bb39 5d3e dd96 4b3e 86f2 0d3e
00000340: b227 233d 765b e8bd b0d3 2ebe eab3 98bd
00000350: 24bb 62be d219 2dbe 95c2 6b3d 6c24 543d
00000360: a324 25bd c030 1d3e b989 75bd 647a 76bd
00000370: f06f 56bc 0463 c8bc e4f5 86bd 6d23 fdbd
00000380: 0c7d babd 3c5d 1cbe 4b5b 33be 0a61 3d3e
00000390: 9e56 8bbc 908f 693d 5f78 993e ddf2 a73d
000003a0: f904 88bd 67cf 41be fc32 5a3e d531 b6bd
000003b0: 06f4 093e 2a92 a63d 5e55 eebd 5c62 91bd
000003c0: d14e 37bd 39d5 6ebe 7d26 07be 5df2 6cbd
000003d0: f2cd 4eb8 a252 adbc 4bf1 ecbc 0110 1bbd
000003e0: e906 433d 23cf ac3c dbdf 293d c81f 0cbd
000003f0: 9e15 ca3d 0ab2 553d f613 d03c baae ebbd

conv_stack.7.bias f4 [32]
-0.307982 -0.10444833 -0.027159106 -0.05094713 -0.050907765 -0.19989085 -0.06747944 -0.021428097
-0.029595092 0.003400389 0.05065198 -0.19300582 0.08073937 0.2101083 -0.029277697 0.026404986
-0.040777914 0.022943554 -0.077029124 -0.0076196776 -0.0013322132 -0.15410322 -0.10458279 0.01980891
-0.08681692 -0.12906939 0.023249932 0.46658647 -0.061775405 -0.05185263 0.096854776 -0.14347562
00000000: d1af 9dbe 02e9 d5bd c67c debc f0ad 50bd
00000010: a984 50bd 30b0 4cbe a932 8abd fa89 afbc
00000020: 6871 f2bc 10d9 5e3b 7378 4f3d 51a3 45be
00000030: af5a a53d a126 573e c8d7 efbc 454f d83c
00000040: be06 27bd 1ff4 bb3c 72c1 9dbd 7dae f9bb
00000050: a89d aeba 3ccd 1dbe 802f d6bd 4c46 a23c
00000060: 12cd b1bd c42a 04be a476 be3c 6ce4 ee3e
00000070: 3508 7dbd 6c63 54bd cc5b c63d 46eb 12be

conv_stack.11.weight f4 [64, 32, 4, 4]
-0.011312335 0.006032397 0.008469657 -0.009811676 0.042091276 0.030812675 -0.0070454045 0.030474242
-0.059307955 -0.020473346 0.0009676597 0.002329854 -0.03348054 -0.10491591 -0.04274198 -0.00961079
-0.03612307 0.022100668 0.011840091 -0.018833444 -0.029032487 -0.018885778 0.011927305 0.032032713
-0.016126849 -0.032204833 0.047369964 0.03194121 -0.03833209 0.0071992553 0.028678669 0.04412504
0.0136574 -0.024371935 0.041582543 0.07268019 -0.042242322 -0.010881664 0.05399444 0.019568752
0.049691096 0.023638653 0.012549756 0.0299252 0.004455189 0.022720747 0.018787 0.022494605
-0.004292754 -0.021965714 0.034749188 0.037838075 0.020395365 -0.029056303 -0.031124786 0.09016431
0.05141302 0.014772747 0.007725239 0.0563972 -0.04471615 -0.017349176 0.0069955946 -0.018931178
-0.02569664 0.037991773 0.037719604 0.050031908 0.028606307 0.013383233 0.019465446 0.05421065
-0.005800827 0.026854435 -0.028518654 0.038562596 0.032100394 -0.02977337 0.028155372 -0.014722707
0.036613185 -0.044535775 0.018081691 -0.00071425963 0.032796025 -0.012695937 0.015510331 0.032236017
-0.085181676 0.13875219 -0.010534562 0.015406243 -0.047956504 0.002208053 0.12545902 -0.02472212
0.041275922 -0.03495916 -0.044797514 -0.02734875 0.053219393 -0.09132267 0.061106164 -0.029492747
0.028921073 -0.003728856 -0.055308346 0.029990386 -0.0295509 0.031358823 -0.0047105434 0.0044326438
0.001043412 -0.019350184 0.011250171 0.028330809 0.012032792 -0.04337601 0.0071684816 0.020302614
-0.0387234 0.026756918 -0.022931084 -0.013427116 0.022592718 -0.018882595 -0.02908 0.0050533977
0.038100176 -0.04225593 0.05178208 0.053474974 -0.014391182 0.016692542 0.014515536 -0.009942146
-0.043304205 -0.04089358 -0.08378237 -0.00971271 -0.039574914 0.025580393 -0.020819457 -0.004537996
0.024734797 0.027967962 -0.0080216145 0.026109492 0.032014053 -0.0025771619 0.0067731813 0.043855894
-0.013466388 0.035126034 -0.011056863 0.017413853 -0.019364744 0.039073806 0.021231195 0.04203192
-0.035807464 -0.014034294 0.0070150876 -0.019453786 -0.000121968114 -0.052712686 -0.008350542 0.014793451
-0.04001259 -0.001234587 0.031429347 -0.00066307804 0.052550722 -0.006358599 -0.022213602 -0.0055727195
0.059101596 0.00048531112 -0.059544478 -0.013042979 -0.019317437 -0.14193168 -0.09619675 -0.03508471
-0.09152329 -0.063575156 -0.004061434 0.011865899 0.04439351 -0.050302256 0.03672293 -0.014389039
-0.013017571 -0.045667756 -0.0046599545 0.042052213 0.00014960079 -0.03850048 -0.021574898 -0.035464484
-0.022757566 0.072057486 0.013557775 -0.033151533 0.033878513 -0.033480056 -0.041579954 -0.037986167
0.018980462 -0.010247576 -0.008704097 0.009113703 0.034044724 0.01707442 0.027315198 0.033165276
-0.045263592 0.03167125 0.044144526 -0.05190898 -0.014924278 -0.021514073 -0.021130053 0.001819525
0.012948121 0.026469128 0.010300566 -0.009594893 0.022755377 -0.049646936 -0.025089938 0.012483548
-0.020368362 -0.042631816 0.0016749356 -0.0016383359 0.01961354 -0.038481303 -0.010859529 -0.026425822
0.03112918 0.022562675 0.040799256 -0.011697576 -0.012828059 0.030437974 -0.120464936 -0.03843951
-0.030154238 0.21019919 0.07032254 0.017082639 -0.021001847 -0.070551366 -0.0072141862 0.02479293
00000000: 5f57 39bc 6aab c53b 51c4 0a3c 27c1 20bc
00000010: e767 2c3d dd6a fc3c 23dd e6bb 1ea5 f93c
00000020: e6ec 72bd b8b7 a7bc 8baa 7d3a 77b0 183b
00000030: e422 09bd 27de d6bd 3712 2fbd 9376 1dbc
00000040: c9f5 13bd 760c b53c f1fc 413c 9848 9abc
00000050: 8ad5 edbc 59b6 9abc be6a 433c bc34 033d
00000060: 741c 84bc 37e9 03bd 0207 423d c9d4 023d
00000070: 1c02 1dbd bbe7 eb3b 87ef ea3c 75bc 343d
00000080: 4ac3 5f3c a7a7 c7bc 7552 2a3d 5ad9 943d
00000090: 4906 2dbd 0249 32bc 4629 5d3d a64e a03c
000000a0: e488 4b3d d9a5 c13c 7e9d 4d3c b125 f53c
000000b0: d6fc 913b dc20 ba3c 32e7 993c 9b46 b83c
000000c0: 3baa 8cbb 71f1 b3bc 2a55 0e3d 19fc 1a3d
000000d0: 2e14 a73c 7c07 eebc 68f9 febc 11a8 b83d
000000e0: 7596 523d 6409 723c 0024 fd3b c000 673d
000000f0: 4828 37bd dc1f 8ebc 4d3b e53b 8f15 9bbc
00000100: c381 d2bc 439d 1b3d df7f 1a3d 42ee 4c3d
00000110: c657 ea3c 5945 5b3c 0076 9f3c fd0b 5e3d
00000120: dd14 bebb d5fd db3c f49f e9bc d0f3 1d3d
00000130: b47b 033d 48e7 f3bc 18a6 e63c 8237 71bc
00000140: b5f7 153d 256b 36bd 0e20 943c 273d 3bba
00000150: 2055 063d 9f02 50bc 0b1f 7e3c ea09 043d
00000160: bb73 aebd 0e15 0e3e 2899 2cbc 776a 7c3c
00000170: 0a6e 44bd fbb4 103b 5478 003e 0b86 cabc
00000180: f110 293d 5631 0fbd 997d 37bd 7c0a e0bc
00000190: 94fc 593d 6107 bbbd 754a 7a3d c69a f1bc
000001a0: e3eb ec3c d35f 74bb 018b 62bd 66ae f53c
000001b0: bb14 f2bc 1c72 003d e75a 9abb b63f 913b
000001c0: 19c3 883a 4784 9ebc a352 383c 0316 e83c
000001d0: 3025 453c 0bab 31bd 95e5 ea3b ab51 a63c
000001e0: 6e9c 1ebd 5331 db3c f8d9 bbbc 68fd 5bbc
000001f0: 5d14 b93c acaf 9abc 2e39 eebc f996 a53b
00000200: ee0e 1c3d 8e14 2dbd 7219 543d 9308 5b3d
00000210: fec8 6bbc ccbe 883c 92d2 6d3c 62e4 22bc
00000220: c05f 31bd 0780 27bd 1796 abbd 0f22 1fbc
00000230: 4e19 22bd f98d d13c 918d aabc 78b3 94bb
00000240: a1a0 ca3c 111d e53c 176d 03bc 93e3 d53c
00000250: 2b21 033d 9ae5 28bb 90f1 dd3b 3da2 333d
00000260: 20a2 5cbc 51e0 0f3d d827 35bc 7fa7 8e3c
00000270: d0a2 9ebc db0b 203d 0bed ad3c aa29 2c3d
00000280: d9aa 12bd 18f0 65bc d2de e53b 8c5d 9fbc
00000290: 22c9 ffb8 42e9 57bd b6d0 08bc 3b60 723c
000002a0: 3ee4 23bd ded1 a1ba 0fbc 003d 6ad2 2dba
000002b0: 6d3f 573d cb5b d0bb 4df9 b5bc 5c9b b6bb
000002c0: 8414 723d 5b71 fe39 e9e4 73bd 38b2 55bc
000002d0: 9a3f 9ebc 8a56 11be cd02 c5bd fcb4 0fbd
000002e0: 9070 bbbd b133 82bd c715 85bb 3069 423c
000002f0: f8d5 353d bd09 4ebd c86a 163d 01c0 6bbc
00000300: a647 55bc 1d0e 3bbd 88b2 98bb f13e 2c3d
00000310: 28de 1c39 aeb2 1dbd d7bd b0bc 3543 11bd
00000320: 136e babc e092 933d 6e21 5e3c e7c9 07bd
00000330: 32c4 0a3d 6222 09bd be4f 2abd 6297 1bbd
00000340: ea7c 9b3c 73e5 27bc a19b 0ebc a451 153c
00000350: 7b72 0b3d a7df 8b3c 1fc4 df3c 50d8 073d
00000360: 5166 39bd b6b9 013d e4d0 343d 839e 54bd
00000370: f584 74bc 483e b0bc ef18 adbc 217d ee3a
00000380: 5b24 543c c9d5 d83c b5c3 283c e633 1dbc
00000390: 7c69 ba3c 965a 4bbd 6a89 cdbc cc87 4c3c
000003a0: 8ddb a6bc b39e 2ebd 8389 db3a 6ebd d6ba
000003b0: 93ac a03c 929e 1dbd 2aec 31bc f77a d8bc
000003c0: 9f02 ff3c 5cd5 b83c 1f1d 273d 31a7 3fbc
000003d0: c72c 52bc 0f59 f93c 52b6 f6bd bf72 1dbd
000003e0: 0506 f7bc 753e 573e 4405 903d e4f0 8b3c
000003f0: 110c acbc 3c7d 90bd fb64 ecbb 8b1a cb3c

conv_stack.11.bias f4 [64]
-0.047513116 0.0010345177 0.06385038 -0.0667705 -0.041859668 0.052947424 -0.0031875162 -0.014858834
0.0344255 0.2016404 -0.03248598 0.02308295 -0.017850742 0.05455738 -0.08395682 -0.04353421
0.017291581 -0.050134774 -0.034420766 0.048606418 -0.018523581 -0.004622892 -0.00365263 -0.014409411
0.20927067 0.256232 -0.014215872 0.0006519015 0.058838673 0.011129713 -0.012423849 -0.029946636
0.0232237 0.06270525 0.1795414 0.13440587 0.020885227 0.08355245 0.1311463 -0.030279996
-0.047065306 -0.03557222 -0.0043345476 0.0048924275 0.2395354 -0.011182711 0.05851896 0.12862083
-0.03514265 0.08112046 -0.027593477 0.17434259 -0.0063148765 -0.045406107 0.016633017 -0.03183968
0.15253186 -0.029067487 0.016264698 -0.06375837 0.20715396 -0.035522103 0.060548592 0.12942433
00000000: 1d9d 42bd a798 873a fdc3 823d f9be 88bd
00000010: 0b75 2bbd 66df 583d a6e5 50bb 7872 73bc
00000020: c101 0d3d d27a 4e3e 0510 05bd 7418 bd3c
00000030: b83b 92bc 8f77 5f3d 8ef1 abbd ee50 32bd
00000040: 13a7 8d3c 1f5a 4dbd cafc 0cbd 8617 473d
00000050: c4be 97bc a17b 97bb f660 6fbb 7315 6cbc
00000060: 0d4b 563e d730 833e b0e9 68bc 5ee4 2a3a
00000070: d200 713d 6659 363c 668d 4bbc a652 f5bc
00000080: a13f be3c 9c6b 803d b3d9 373e b1a1 093e
00000090: 7f17 ab3c 8c1d ab3d 374b 063e c10d f8bc
000000a0: 8dc7 40bd 2db4 11bd d208 8ebb a850 a03b
000000b0: c548 753e b137 37bc 94b1 6f3d 2eb5 033e
000000c0: bdf1 0fbd 7c22 a63d b70b e2bc dd86 323e
000000d0: 06ed cebb c1fb 39bd f741 883c 536a 02bd
000000e0: 5031 1c3e f01e eebc 8b3d 853c c093 82bd
000000f0: 2b20 543e a07f 11bd cd01 783d d087 043e

linear.weight f4 [10, 64]
-0.1705233 0.004593796 -0.41372997 -0.005437983 -0.044818237 -0.23826483 -0.012285183 -0.21968216
0.03829691 0.12366576 0.03433696 -0.32848024 0.08178491 0.21206722 0.4831645 -0.08981995
-0.107215054 0.0864937 -0.23795058 -0.09028833 -0.012523362 -0.08606151 -0.04367391 -0.30884093
-0.14390472 -0.33897862 -0.1663912 -0.12046215 -0.1711189 0.28991684 0.20156801 0.030995777
-0.41490898 -0.18265222 -0.19208728 0.23752615 0.43100655 -0.17993009 -0.25661606 -0.086720236
5.2793785e-05 0.028066412 0.727244 0.20376168 -0.1931206 0.35126135 -0.21507542 -0.016707327
-0.05729843 -0.019438047 -0.030359585 -0.2437487 -0.11356391 -0.027572332 0.00066985836 -0.087258704
-0.118639715 0.07389918 -0.066185385 0.021608897 -0.033035085 0.2608702 -0.07696748 0.26819715
-0.010485366 0.07777291 0.35288003 -0.154644 -0.025514321 -0.21713403 -0.09464542 0.053657737
-0.18524288 0.5788445 0.048101645 -0.09369692 -0.07573695 -0.21567214 -0.32556576 0.016148692
-0.23564747 -0.059041988 -0.24357313 -0.1548601 -0.030372944 0.13073607 -0.011193257 -0.0074642147
0.061200913 0.5948668 -0.22940452 -0.294141 0.113956675 0.07077573 0.1045227 -0.42859432
-0.13202809 -0.35111946 0.3248863 -0.04815566 -0.36635903 -0.2221471 -0.009178345 0.048260722
-0.20428155 0.013750539 -0.03483036 0.049281377 0.5226022 -0.14071131 -0.21809843 0.021242978
0.04422969 -0.28592676 -0.082250915 0.20503147 -0.031093515 -0.22737585 -0.00088157057 -0.023412244
0.5486388 -0.045358863 0.120049044 -0.19110928 0.46688667 -0.19631922 -0.017021967 0.16327468
0.027449563 -0.07257369 -0.20327441 -0.1562274 -0.0021365315 -0.16494817 -0.06421825 -0.24659637
0.3649222 -0.10179839 -0.07459278 -0.10039674 0.034126166 -0.34042436 -0.268418 -0.08838383
-0.013018338 0.019025778 0.23342146 0.0717492 0.07027442 0.09865872 0.12733194 0.04854276
-0.19135173 0.36168802 0.51621616 0.14648108 -0.3053699 -0.28458047 -0.12223935 0.35592723
-0.24400005 -0.09419003 -0.05877558 0.42177865 0.39538732 0.09465433 -0.35997245 -0.023436688
-0.28849107 0.029746134 -0.34147686 0.60139865 0.017928174 -0.23565488 0.035729636 -0.11480569
-0.013695246 -0.0023157485 -0.0948582 -0.00014535057 0.020252159 -0.04895562 0.18392566 0.110054046
0.46143204 0.034336895 -0.33184966 -0.0381498 -0.27172327 0.11305381 0.0892561 0.06256692
0.28986275 -0.021724433 0.7343387 -0.14726947 0.050210193 0.015521519 -0.021430273 0.4075904
-0.27445874 -0.14189069 0.014886404 0.6822315 -0.012103879 -0.055468626 0.18540962 0.19297664
-0.0015650989 -0.07720119 -0.15155597 -0.24916907 0.01975148 -0.05259511 0.06577004 0.13439225
-0.44745818 -0.13279372 0.0041748234 0.04399853 -0.06223931 0.26629028 -0.10305278 0.11595111
-0.11399576 -0.1822494 0.047028396 0.18743977 0.100021206 0.47248024 0.14899305 -0.020426566
-0.022949498 -0.051128987 -0.1904698 -0.06880501 0.16879891 -0.01733721 0.07858034 -0.24006324
0.060220826 -0.10456096 0.033457406 -0.32973546 0.027773378 0.1014715 0.008084335 -0.099141054
-0.15393804 0.020367665 0.20208313 -0.11101431 -0.21357696 -0.26091743 -0.2952582 0.015904382
00000000: a99d 2ebe 8e87 963b 6ad4 d3be 1c31 b2bb
00000010: 5493 37bd b2fb 73be cb47 49bc 5cf4 60be
00000020: 38dd 1c3d 7944 fd3d eaa4 0c3d 902e a8be
00000030: d97e a73d 2628 593e 5661 f73e 86f3 b7bd
00000040: 9193 dbbd 9c23 b13d 51a9 73be 17e9 b8bd
00000050: ca2e 4dbc 0441 b0bd 6ae3 32bd 6620 9ebe
00000060: c25b 13be 9b8e adbe 7462 2abe dcb4 f6bd
00000070: cb39 2fbe fb6f 943e d867 4e3e dbea fd3c
00000080: f36e d4be 2f09 3bbe 87b2 44be 0e3a 733e
00000090: e4ac dc3e 983f 38be 2e63 83be 619a b1bd
000000a0: e56e 5d38 88eb e53c aa2c 3a3f e7a6 503e
000000b0: 68c1 45be 87d8 b33e bb3c 5cbe cedd 88bc
000000c0: c2b1 6abd 8a3c 9fbc aab4 f8bc 4299 79be
000000d0: 3294 e8bd 5fdf e1bc 6f99 2f3a b1b4 b2bd
000000e0: 61f9 f2bd 7458 973d 348c 87bd 2405 b13c
000000f0: cc4f 07bd c790 853e 20a1 9dbd 2351 893e
00000100: d0ca 2bbc 6747 9f3d b1ac b43e ff5a 1ebe
00000110: 6903 d1bc 6258 5ebe 75d5 c1bd 37c8 5b3d
00000120: 4fb0 3dbe 272f 143f 3b06 453d 2ce4 bfbd
00000130: f91b 9bbd 28d9 5cbe 8eb0 a6be 434a 843c
00000140: 924d 71be 03d6 71bd 3c6b 79be a593 1ebe
00000150: aed0 f8bc addf 053e ec63 37bc 5f96 f4bb
00000160: cfad 7a3d 3149 183f 05e9 6abe a699 96be
00000170: 1e62 e93d def2 903d ff0f d63d b770 dbbe
00000180: 5f32 07be eec5 b3be 7f57 a63e df3e 45bd
00000190: 6993 bbbe 887a 63be c560 16bc 09ad 453d
000001a0: 2f2f 51be f149 613c 48aa 0ebd 45db 493d
000001b0: 42c9 053f a016 10be 3255 5fbe c105 ae3c
000001c0: 312a 353d fe64 92be 2b73 a8bd c5f3 513e
000001d0: d4b7 febc 37d5 68be 3319 67ba 09cb bfbc
000001e0: 9873 0c3f 37ca 39bd 46dc f53d 27b2 43be
000001f0: c50b ef3e e807 49be a771 8bbc 7a31 273e
00000200: e8dd e03c 84a1 94bd 2b27 50be 13fa 1fbe
00000210: 0d05 0cbb 2ce8 28be dc84 83bd c283 7cbe
00000220: 15d7 ba3e ad7b d0bd 19c4 98bd ce9c cdbd
00000230: e1c7 0b3d 1a4c aebe 166e 89be 9502 b5bd
00000240: de4a 55bc f3db 9b3c 0906 6f3e 3ff1 923d
00000250: 09ec 8f3d 950d ca3d 4e63 023e c6d4 463d
00000260: b5f1 43be 2c2f b93e be26 043f 23ff 153e
00000270: 7259 9cbe 88b4 91be a058 fabd 183c b63e
00000280: 26db 79be b4e6 c0bd aabe 70bd 5ff3 d73e
00000290: 3570 ca3e 21da c13d 4f4e b8be 4cfe bfbc
000002a0: 1ab5 93be 2aae f33c 0ed6 aebe 43f5 193f
000002b0: 1bde 923c 834f 71be 3d59 123d 3f1f ebbd
000002c0: 0662 60bc d0c3 17bb 0445 c2bd 3f69 18b9
000002d0: dbe7 a53c b085 48bd 0257 3c3e 0464 e13d
000002e0: d240 ec3e d8a4 0c3d 33e8 a9be f742 1cbd
000002f0: 501f 8bbe c288 e73d e7cb b63d 1623 803d
00000300: e468 943e 70f7 b1bc 9ffd 3b3f cfcd 16be
00000310: 34a9 4d3d f84d 7e3c 8a8e afbc b0af d03e
00000320: db85 8cbe cb4b 11be 1be6 733c b9a6 2e3f
00000330: 594f 46bc 1233 63bd 05dc 3d3e ab9b 453e
00000340: 0124 cdba a81b 9ebd 7d31 1bbe 2d26 7fbe
00000350: dbcd a13c f86d 57bd 71b2 863d 1f9e 093e
00000360: 3d19 e5be 14fb 07be f5cc 883b cd37 343d
00000370: a6ee 7ebd 3357 883e 560d d3bd c777 ed3d
00000380: 9c76 e9bd 969f 3abe d9a0 403d 36f0 3f3e
00000390: ebd7 cc3d eee8 f13e a291 183e 9d55 a7bc
000003a0: 9600 bcbc a16c 51bd 840a 43be a4e9 8cbd
000003b0: 9fd9 2c3e c406 8ebc bbee a03d 23d3 75be
000003c0: 1daa 763d 0e24 d6bd a20a 093d 16d3 a8be
000003d0: ff84 e33c 4ad0 cf3d 2974 043c 770a cbbd
000003e0: efa1 1dbe 17da a63c e1ee 4e3e 785b e3bd
000003f0: ebb3 5abe f896 85be 152c 97be e849 823c

linear.bias f4 [10]
-0.17177868 0.68861574 -0.2339487 0.12030534 -0.07287453 -0.14129192 -0.32561883 -0.09517137
0.26216573 -0.27483976
00000000: c0e6 2fbe 1f49 303f 3f90 6fbe a562 f63d
00000010: 3e3f 95bd d4ae 10be 83b7 a6be 35e9 c2bd
00000020: 963a 863e ccb7 8cbe
