web-service/app/ml-models/digit_logreg.pt (torch, 32507 bytes, 2 tensors)

linear.weight f4 [10, 784]
000000 d3 ca c9 ba ec 96 73 3b 13 11 19 3d 45 db 32 3d
       -0.0015395529 0.0037168814 0.0373698 0.043666143
000010 55 02 37 3d 67 ae 88 3c c1 4b 33 3d 12 39 29 ba
       0.04467996 0.016684724 0.043773416 -0.00064553425
000020 75 1c 50 3d 16 51 4d bc d2 35 ca ba de 49 2c bc
       0.05080839 -0.012531539 -0.0015427417 -0.010515658
000030 86 54 95 3c 5b 80 41 3d ac 6e 41 bc 10 24 f8 bb
       0.01822878 0.04724155 -0.011806171 -0.0075726584
000040 56 a7 c5 bc 4d b7 a6 39 76 00 27 3d ee bd 2b 3d
       -0.024127644 0.00031798557 0.040771924 0.041929178
000050 a5 02 b2 3b 4e a8 9d bc a0 a2 28 3d e0 15 47 3b
       0.005432444 -0.019245293 0.041170716 0.0030378029
000060 85 1c d7 3c 47 24 c7 3c 9d ec a2 3c 3b 20 18 3b
       0.026258716 0.02430929 0.019888217 0.002321257
000070 8d b9 ac 3c 77 a5 92 bc 47 58 83 bc 03 a8 16 bb
       0.021084571 -0.017901165 -0.016033305 -0.0022988326
000080 d2 ed 62 bc b0 29 ee 3c 33 08 95 3c 86 01 53 bc
       -0.013850646 0.029072613 0.018192386 -0.012878781
000090 42 fd 9d 3c e5 e2 40 3d 21 94 69 3c 72 68 c1 3c
       0.019285802 0.047091383 0.014256508 0.023609374
0000a0 b9 29 be 3c 42 ec a3 3c 02 81 21 bc 05 d4 06 bc
       0.023213254 0.020010117 -0.009857418 -0.00822926
0000b0 50 7a ad bc 3e 27 f4 bc 57 54 4d bc ff 77 56 bc
       -0.021176487 -0.029803868 -0.012532315 -0.013090133
0000c0 a3 9c cd 3c 28 b1 bf 3b 88 d0 24 3b 1b 23 e0 3c
       0.025099104 0.005849976 0.0025148708 0.02736049
0000d0 d8 1d 91 3b ca 2f e4 3c bc 3d a1 3c 77 5b cc 3b
       0.0044286065 0.027854819 0.019682758 0.0062364894
0000e0 a3 9b b8 3c 0c 56 dd 3c 8d 90 f3 3b 99 4d 5b ba
       0.02253515 0.02701857 0.0074330033 -0.000836575
0000f0 59 c9 02 bc c2 ca 96 3c 60 9a 5f ba d1 6a aa bc
       -0.007982575 0.01840723 -0.00085297786 -0.020802887
000100 71 8e 11 bc 98 3c 9e 3c 3c a2 ab bb 9f 90 d1 bc
       -0.008884058 0.019316003 -0.0052378457 -0.025581656
000110 68 1a 25 bd 2f 1e 03 bd e0 28 da bc 5b 02 d1 bc
       -0.040308386 -0.032011207 -0.026630819 -0.025513818
000120 4e c6 ed 3b 96 69 93 3b b1 0f d2 3b e7 1f 03 bd
       0.007256306 0.004498671 0.006410562 -0.032012846
000130 09 37 55 bb cb 05 76 bc 93 92 4f 3c 32 e8 8b bc
       -0.0032534024 -0.01501603 0.012669223 -0.017078493
000140 f8 96 3f 3c 68 cb 6d 3a d6 92 a5 3c 58 47 80 3c
       0.011693709 0.00090711424 0.020211618 0.01565902
000150 66 52 e5 b9 cc ee 25 3b e8 1c 32 3d 90 43 82 bc
       -0.00043739675 0.0025319336 0.0434846 -0.015901357
000160 d4 6e b8 3c ef a2 98 bc 51 e8 be bc cb 45 1d bb
       0.022513784 -0.01863238 -0.023304136 -0.0023997899
000170 af 63 c2 3c 19 8d 0c 3d 26 53 cb 3b d0 b8 93 bc
       0.023729173 0.03431425 0.0062049804 -0.018032461
000180 e5 aa 89 bc 69 8d e1 3c 07 3e 58 3d 16 37 2d bc
       -0.016805122 0.02753325 0.05279353 -0.010572216
000190 cd 8d 07 3d 79 84 bd 3c be e6 41 3d ff 45 1f 3d
       0.033094216 0.023134457 0.047339194 0.038885113
0001a0 cc 5d 8b 3c 47 06 8d bc 5b 1e d5 3a 71 2f d9 bc
       0.0170125 -0.017214907 0.0016259657 -0.02651188
0001b0 55 c3 0c 3c 1d f8 8f bc 29 29 bb 3c a0 01 4c 3d
       0.008591493 -0.017574364 0.022846775 0.049806237
0001c0 43 3b 52 3d 79 27 07 3d 07 52 91 bc 04 14 ba bb
       0.051326048 0.03299663 -0.017739309 -0.0056786556
0001d0 67 77 ab bb 32 e0 4e bc cf 4d b8 bc d1 f4 7a 3b
       -0.0052327397 -0.0126266945 -0.02249804 0.0038292895
0001e0 ac 42 c8 3c c9 ac 25 bc 4b 13 07 3d d4 4d 6d 3d
       0.024445854 -0.010111996 0.032977384 0.05793555
0001f0 6e df 83 bc 5b bc 5f 3d 1d 7f 29 3d 28 b4 b1 3d
       -0.01609775 0.05462299 0.04138099 0.0867694
000200 f7 da 28 bb 18 3a 92 3d 51 6e 58 3d d7 e2 09 bd
       -0.002576528 0.07139987 0.05283958 -0.033663597
000210 9d 79 a2 3d 57 f7 15 3d 71 b8 a9 bc f2 46 8a 3c
       0.07933352 0.036612835 -0.020717831 0.016879532
000220 df 61 7a 3b 01 40 12 3c 52 3c ab 3c 70 a5 57 bb
       0.0038205308 0.0089263925 0.020902786 -0.0032905005
000230 27 48 92 3c 43 b2 24 3d 96 bd 49 3c e6 97 07 3d
       0.01785667 0.040209066 0.012313267 0.033103846
000240 94 98 af 3c c1 29 0d bd 70 96 18 3b 54 37 b2 bc
       0.02143506 -0.034463648 0.0023283027 -0.021754898
000250 44 02 26 3b a1 27 13 3c c7 be ce bc 22 e2 64 3d
       0.002533094 0.008981616 -0.025237454 0.05587972
000260 1b 31 d6 bc a4 d8 49 3d 5d 50 21 3d 2e 4f 6b 3d
       -0.026146462 0.04927887 0.03938328 0.05744856
000270 ee 8d 25 bc 46 84 9a 3d 78 de 93 3b a8 5e 16 3d
       -0.010104639 0.075447604 0.0045126043 0.036711365
000280 22 3b 9c 3d 7a 8e 25 3d a0 c9 9a 3c a2 c6 16 bc
       0.07628466 0.04041908 0.01889497 -0.009202631
000290 88 3b 31 bd fd 6a e3 bc 06 93 3e 3d 07 f2 4e bb
       -0.043269664 -0.027760977 0.04652693 -0.0031577365
0002a0 cb 13 8f 3b 57 2b 6a bc 38 27 f9 3c 11 a7 4a 3c
       0.004366373 -0.01429256 0.030414209 0.012368933
0002b0 94 0d d7 bc 12 ff 25 bd 36 14 78 bc 2d fc 44 bc
       -0.026251592 -0.040526457 -0.015141537 -0.012023014
0002c0 6c fc 6c bc 4e 88 06 3d e0 14 16 3c 88 51 31 3d
       -0.014464479 0.032844834 0.00916025 0.043290645
0002d0 55 b9 84 ba c7 5f 67 bb 9f f6 86 3d 8c 35 89 3d
       -0.0010126034 -0.003530489 0.06590008 0.066996664
0002e0 90 b3 38 3d 98 30 44 3d b3 b9 c6 3c a0 c3 47 3d
       0.04509312 0.047897905 0.02425847 0.048770547
0002f0 86 e9 55 bc e1 54 8d 3d fb 3d 0d 3d 4e f3 0b bc
       -0.013056165 0.06900955 0.034482937 -0.008541895
000300 14 a1 43 bd b5 37 19 bd f1 10 cb 3b 35 16 dd 3b
       -0.047761038 -0.037406642 0.006197088 0.006747032
000310 eb 31 74 3c f2 36 b4 3c f7 62 06 3c 16 d5 08 bb
       0.0149044795 0.021998856 0.008202306 -0.0020878962
000320 f3 58 5c bd 52 26 84 bd b7 13 6e bd ed cf e8 3b
       -0.053795766 -0.064526215 -0.05812427 0.007104865
000330 ea 52 3c 3b f8 45 64 3c f2 d1 e1 bc 51 bd 94 3d
       0.0028735944 0.0139326975 -0.02756593 0.07262672
000340 b1 ed aa 3c 82 ac 28 3c 48 3e f2 3c bd d6 06 3d
       0.020865293 0.010295035 0.029570714 0.032919634
000350 49 5c 38 3d de ab 3f 3d 65 98 e6 3c fc 19 3e 3d
       0.045009885 0.046794765 0.02814884 0.0464115
000360 38 26 92 3d 63 20 6d 3d 2e 89 12 3d b1 e8 93 3c
       0.07136196 0.057892215 0.035775356 0.018055292
000370 b5 6a 01 bd 92 26 fb bb a6 f1 be bc f1 88 85 3c
       -0.031595904 -0.00766451 -0.023308586 0.01630065
000380 be cc bb 3b fb bf bf 3b 2d 12 de bb 43 ba 1f bb
       0.0057311943 0.0058517433 -0.006777069 -0.0024372495
000390 30 70 57 bd 0d f0 c4 bd 7f 91 6b bd 48 15 8d bd
       -0.052597225 -0.096160986 -0.057511803 -0.06888825
0003a0 42 86 15 bd e3 28 00 3d 22 6b da bb e0 5e dc 3b
       -0.03650499 0.031288993 -0.0066656033 0.006725177
0003b0 ea 43 66 bc 25 d0 81 3d a1 98 9a bc 57 11 e1 3d
       -0.014054278 0.063385285 -0.018871607 0.109896354
0003c0 38 93 f2 3c 4c 46 71 3d 94 81 c1 3d fd 46 d1 3c
       0.029611215 0.05890493 0.09448543 0.025546545
0003d0 b8 43 81 3d 66 12 05 3d cd a1 24 3d e9 6d c5 3d
       0.063117445 0.03248825 0.040193368 0.09640104
0003e0 67 cb 05 3d ca 5c 8c bd 25 1d df bc 4d 79 d7 3c
       0.032664683 -0.068536356 -0.027235577 0.026302958
0003f0 84 b7 fc 3b 8a 0c a8 bc b7 85 3e 3c 55 ce 54 bd
       0.0077123065 -0.020513792 0.01162856 -0.051954586

linear.bias f4 [10]
000000 02 94 80 bd b1 24 36 bd 72 f2 bf 3d 15 f3 a8 3d
       -0.0627823 -0.044468585 0.09372415 0.08249489
000010 7a 8e 63 bd 0b 14 13 3e ee de ba bc 56 00 e9 3c
       -0.055555798 0.14363115 -0.02281138 0.028442543
000020 28 f1 cf bc f3 79 03 bd
       -0.025383547 -0.03209872
